latest version/heart attack model/net/1hiddenlayer.pt (torch, 4239 bytes, 3 tensors)

weight f4 [32, 13]
0.68902105 -0.5840108 0.5962749 1.0038207 0.8049208 -0.14738683 0.10711134 0.29697523
-0.097560234 -1.1328695 0.4622089 0.2199726 0.30563772 -0.4771645 0.7397434 -0.15277381
0.38845345 0.56338847 -0.18135488 -0.7893609 -0.9498492 0.08459689 0.021415224 0.23754944
0.3769813 -0.43712875 0.16183296 0.7475643 -0.38412726 -0.13337396 -0.6756678 0.39720625
-0.4161966 0.10794217 -0.222483 0.9381909 0.028865645 0.86953604 0.2108221 1.0152007
1.2680285 -1.2937418 -0.15586635 0.3496664 -0.53651196 0.7495414 -0.4429102 -0.14817522
-0.6057299 0.08720002 0.5082323 0.18497321 0.031617038 0.71899706 -0.19963217 0.64857996
0.45461786 0.16572271 -0.13079129 0.57111317 0.29502743 0.83978695 -0.21835081 0.060203724
0.55655766 -0.32241085 -0.105325796 -0.31707725 0.034926973 0.27322146 -0.3120776 -0.3255108
0.122202806 -0.5304151 0.66090775 -0.71383166 -1.2269202 -0.11029121 -0.3845492 0.33419397
-0.47930336 0.9417446 -1.2458678 0.82186145 0.29521307 1.31763 -0.21612354 -0.3184019
0.5960932 -1.2986276 -0.5808006 -1.3163726 -0.92890626 -0.14649542 -0.1005136 0.8043653
0.886408 1.0382383 0.6934563 -0.55384564 0.10560745 0.44715407 1.554885 0.454634
0.6212873 -0.49804065 -1.3143816 -0.043839246 -0.4743118 0.47164142 -0.8471 1.1361562
0.14409617 0.1418044 -0.30229872 0.24105422 0.33469853 -0.7522057 -0.33788693 -0.010044761
0.23449492 0.109200284 0.32795244 0.07268125 -1.6837745 -0.09727016 0.6990411 -0.14766786
0.86417544 -0.8134799 -0.7916079 -0.25086766 0.2265934 0.50189936 0.23655225 0.6466111
0.13327824 0.45169073 -0.3472441 0.08674721 -0.3689937 -0.43485126 0.4813494 -0.39926136
0.49378115 -0.51049626 0.20287754 0.14013813 0.4591659 -0.45990652 0.054966867 -0.06942513
0.5180393 -0.07315597 0.21912794 0.51393855 -0.40938467 -0.5600119 -0.18090928 0.38398647
-0.3424512 -0.4911867 -0.52666175 -0.18339708 0.17603251 0.78874385 1.3597552 -0.4767145
-0.4165264 -0.42956218 0.39957833 -0.69949037 0.5294321 0.23554945 0.26555455 -0.46162444
0.37765607 0.08180477 0.12736128 -0.41745892 0.3092856 0.97044015 -0.54020816 0.46557504
-0.7013989 0.2898776 0.1694745 -0.03269857 -0.23543581 0.23843583 -0.25867835 0.29141507
0.03169906 0.11490787 0.7781261 0.62072027 -0.2696797 -0.2920935 -0.60141975 -1.8024353
0.57860416 -0.6088353 0.81153846 -0.32500502 0.06316974 -0.6360395 0.90565187 -0.057211153
-0.56227124 -0.72598505 -0.0034977319 0.15158874 0.11392723 0.5316726 0.28986338 -0.70647246
-0.7315185 0.40577233 -0.40148166 0.32930416 0.30725905 -0.20995809 -1.1213251 0.24170987
0.36349943 -0.31177095 0.20074037 0.032408837 -0.7105009 -1.2251403 0.124811456 -0.556103
0.9579377 -0.40324214 -0.57611 -0.106665276 -0.27733785 0.4311094 0.20229337 0.4881219
-0.24431221 -0.24964651 -0.25958064 -0.5244824 -0.25726187 -0.7964433 0.25591308 0.20757484
-0.6113158 -0.6384617 0.51278126 0.04478379 0.45152327 0.51215494 0.23391885 -0.4478855
00000000: af63 303f bb81 15bf 79a5 183f 327d 803f
00000010: 4a0f 4e3f 93ec 16be 315d db3d 230d 983e
00000020: a9cd c7bd de01 91bf a5a6 ec3e 7f40 613e
00000030: 8c7c 9c3e e84e f4be d35f 3d3f bd70 1cbe
00000040: 5fe3 c63e 3a3a 103f 18b5 39be 8e13 4abf
00000050: 5129 73bf 2241 ad3d fb6e af3c 2940 733e
00000060: b103 c13e 57cf dfbe 8ab7 253e 6060 3f3f
00000070: 54ac c4be 2f93 08be 91f8 2cbf 9e5e cb3e
00000080: b917 d5be c910 dd3d 95d2 63be 472d 703f
00000090: a577 ec3c ea99 5e3f c0e1 573e 19f2 813f
000000a0: c24e a23f 5599 a5bf 6e9b 1fbe 7907 b33e
000000b0: d958 09bf f2e1 3f3f 20c5 e2be 3fbb 17be
000000c0: 1d11 1bbf ed95 b23d 831b 023f 9e69 3d3e
000000d0: de80 013d 3110 383f 606c 4cbe 5609 263f
000000e0: acc3 e83e 37b3 293e 27ee 05be 7934 123f
000000f0: d60d 973e 47fc 563f 5b97 5fbe 2e98 763d
00000100: 907a 0e3f 0913 a5be 0db5 d7bd f357 a2be
00000110: 960f 0f3d afe3 8b3e a3c8 9fbe 5aa9 a6be
00000120: 7745 fa3d 49c9 07bf 4031 293f acbd 36bf
00000130: b90b 9dbf 5ce0 e1bd a2e3 c4be 791b ab3e
00000140: 4067 f5be 2d16 713f 9978 9fbf 8365 523f
00000150: 2b26 973e 1aa8 a83f 7d4f 5dbe 9305 a3be
00000160: 9099 183f 6e39 a6bf 59af 14bf e67e a8bf
00000170: cdcc 6dbf e502 16be 13da cdbd e2ea 4d3f
00000180: a2eb 623f fee4 843f 5a86 313f d4c8 0dbf
00000190: b848 d83d 61f1 e43e 7906 c73f cac5 e83e
000001a0: af0c 1f3f 2fff febe a83d a8bf c890 33bd
000001b0: ffd8 f2be fc7a f13e 8cdb 58bf 916d 913f
000001c0: f28d 133e 2c35 113e e6c6 9abe ebd6 763e
000001d0: 9b5d ab3e 8e90 40bf 84ff acbe c892 24bc
000001e0: 701f 703e 66a4 df3d 62e9 a73e e8d9 943d
000001f0: ec85 d7bf 9435 c7bd 5cf4 323f 3e36 17be
00000200: 9a3a 5d3f 3840 50bf d1a6 4abf ba71 80be
00000210: 1a08 683e 7a7c 003f c13a 723e 4e88 253f
00000220: 177a 083e 0244 e73e fbc9 b1be 85a8 b13d
00000230: beec bcbe d3a4 debe 6e73 f63e fc6b ccbe
00000240: e2d0 fc3e e2af 02bf 21bf 4f3e 5f80 0f3e
00000250: cb17 eb3e de78 ebbe f024 613d c32e 8ebd
00000260: 399e 043f ccd2 95bd 1363 603e 7a91 033f
00000270: de9a d1be f15c 0fbf 4840 39be e099 c43e
00000280: c455 afbe d37c fbbe 4ed3 06bf 72cc 3bbe
00000290: de41 343e 1eeb 493f 750c ae3f ec13 f4be
000002a0: f342 d5be 93ef dbbe 8895 cc3e cd11 33bf
000002b0: dd88 073f e033 713e c4f6 873e 0a5a ecbe
000002c0: 235c c13e 4289 a73d ff6a 023e 2dbd d5be
000002d0: af5a 9e3e c46e 783f 154b 0abf da5f ee3e
000002e0: e18e 33bf d66a 943e b98a 2d3e f0ee 05bd
000002f0: 1616 71be 8628 743e 7d71 84be 5b34 953e
00000300: e0d6 013d d154 eb3d 4633 473f 86e7 1e3f
00000310: 7513 8abe 478d 95be a5f6 19bf 33b6 e6bf
00000320: 671f 143f a1dc 1bbf fcc0 4f3f 0f67 a6be
00000330: 235f 813d 7cd3 22bf cdd8 673f 3e56 6abd
00000340: 02f1 0fbf 28da 39bf 343a 65bb 143a 1b3e
00000350: ae52 e93d b21b 083f f968 943e 61db 34bf
00000360: cc44 3bbf 64c1 cf3e 018f cdbe 8e9a a83e
00000370: 0f51 9d3e 41ff 56be 9587 8fbf cb82 773e
00000380: 991c ba3e 71a0 9fbe e28e 4d3e 21bf 043d
00000390: 63e3 35bf 66d1 9cbf 269d ff3d c45c 0ebf
000003a0: 683b 753f c175 cebe f27b 13bf 5373 dabd
000003b0: 3aff 8dbe 5fba dc3e fe25 4f3e 1deb f93e
000003c0: fb2c 7abe 56a3 7fbe c1e7 84be 7b44 06bf
000003d0: d4b7 83be b5e3 4bbf 0a07 833e 808e 543e
000003e0: 317f 1cbf 3a72 23bf a245 033f 356f 373d
000003f0: 0f2e e73e 961c 033f 6c88 6f3e 4051 e5be

bias f4 [32]
-0.18475778 -1.0159501 0.43050295 -0.048987556 -0.009397546 0.32940975 -0.32162073 -0.40923476
1.022762 -0.96241957 0.22732201 0.10809369 0.32542 -0.5949176 -0.0401561 0.2685273
0.9210229 0.25710773 0.08231759 0.3977853 0.40160447 -0.83094054 0.32182696 0.076455146
-0.7687741 -0.315867 0.16240661 -0.7907846 -0.47787705 -0.045809064 0.31472376 -0.65832114
00000000: 2531 3dbe a70a 82bf e26a dc3e 2da7 48bd
00000010: 2af8 19bc 65a8 a83e 79ab a4be 3887 d1be
00000020: dde9 823f 2161 76bf 1ac7 683e 3960 dd3d
00000030: 739d a63e 854c 18bf b97a 24bd 697c 893e
00000040: 28c8 6b3f a0a3 833e 2096 a83d 84aa cb3e
00000050: 1a9f cd3e 85b8 54bf 81c6 a43e 8494 9c3d
00000060: 61ce 44bf 52b9 a1be eb4d 263e dc70 4abf
00000070: 4dac f4be 49a2 3bbd 7923 a13e bc87 28bf

weight f4 [1, 32]
-1.0709244 -2.4602454 -1.5631799 1.5790792 -1.0337507 0.946025 2.6719453 4.1765113
-1.8032292 -4.0286937 1.2197462 -0.91065556 1.4161865 -2.213362 -1.051947 -2.422278
1.9477534 2.3093843 0.6911713 0.70373106 1.7143558 -2.3235476 -1.3538059 -0.84971
-2.9675248 -2.336155 2.1984541 -2.4315958 -1.686813 -0.9281608 1.8977003 -1.9840605
00000000: 0d14 89bf a974 1dc0 4716 c8bf 441f ca3f
00000010: f151 84bf b22e 723f 2701 2b40 fba5 8540
00000020: 37d0 e6bf 0feb 80c0 a520 9c3f b920 69bf
00000030: 9945 b53f b9a7 0dc0 33a6 86bf 9a06 1bc0
00000040: fc4f f93f f4cc 1340 9af0 303f b827 343f
00000050: 0370 db3f 01b5 14c0 8349 adbf 9886 59bf
00000060: edeb 3dc0 9083 15c0 79b3 0c40 449f 1bc0
00000070: 7de9 d7bf f29b 6dbf d8e7 f23f b2f5 fdbf
