latest version/heart attack model/net/2hiddenlayer.pt (torch, 5087 bytes, 5 tensors)

weight f4 [24, 13]
000000 fd dc c3 be 96 72 28 bf 2c 28 3e bd f9 41 40 3e
       -0.38254538 -0.65799844 -0.04642503 0.18775167
000010 ad 74 39 3f 56 04 27 be 4f c9 31 3e 2d c9 d9 3e
       0.7244366 -0.16310248 0.1736195 0.42536297
000020 f6 1f ae be 0d 15 87 bd 0a e1 5c bd 7b b5 21 3e
       -0.3400876 -0.06595812 -0.05392555 0.15791886
000030 bd dc b0 be 1f ed 51 be 89 f0 34 bf eb df 62 bf
       -0.3454341 -0.20500611 -0.7067953 -0.8862292
000040 8d 43 e9 3e e5 3d cc 3d d8 b8 b2 3e 1f 8b 93 be
       0.4555935 0.09972743 0.3490665 -0.28817078
000050 c8 fe fd 3e 7e 4d ba 3e c2 df 37 be b2 f5 95 3e
       0.49608445 0.36387247 -0.1795645 0.29289013
000060 08 c8 f7 3e 7a 72 74 bd d4 5b 5c bf d7 a8 0b 3e
       0.483948 -0.059679486 -0.8607762 0.13638626
000070 9b 8f 00 3e 1c e8 c1 3e 95 b9 4a 3f 09 c0 38 3e
       0.12554781 0.37872398 0.79189426 0.18042006
000080 78 15 99 3e 14 83 c1 3e 3f 3b 4c 3e 3e 72 a7 3e
       0.29899192 0.37795317 0.19944476 0.32704347
000090 a3 dc a9 3e 92 4d ee 3e 78 1e 1b 3f ca a3 0d bf
       0.33176145 0.46543556 0.60593367 -0.5532805
0000a0 35 34 06 3d 2b 0a 53 3f 7e 75 36 3e 41 50 33 3f
       0.032764632 0.8243739 0.17818257 0.7004433
0000b0 46 1f af 3d f9 49 1e 3f 1b 89 43 bf 5d ed 54 be
       0.08550887 0.61831623 -0.7638108 -0.20793672
0000c0 01 fe 8d be 98 22 c0 3e cf ce f1 bc 5d 1a c6 be
       -0.27732852 0.37526393 -0.02951756 -0.3869199
0000d0 82 97 13 be b3 ed 20 bf e2 d7 6a be 9e 20 a4 3e
       -0.14413264 -0.628627 -0.22933915 0.32056135
0000e0 8c c8 b9 bf 0a 74 07 3f 0a 49 0a 3f 73 e1 e0 be
       -1.4514327 0.52911437 0.540177 -0.43922004
0000f0 a4 39 a1 be f8 71 c9 bd 06 09 ee bd d1 97 ac 3e
       -0.3148929 -0.09836191 -0.11622815 0.33709577
000100 0b 00 33 bf d9 bb f7 3d fc f4 6c 3d 94 0c e2 bd
       -0.6992194 0.12096376 0.057850823 -0.11037555
000110 36 96 5a 3d 2c e1 2c 3e 8f 6c 8b be c3 4b 0c bf
       0.05336591 0.16882771 -0.2723126 -0.54803103
000120 89 6b c6 3b c7 c2 d8 be 33 a4 0d be 7b 7c 90 3e
       0.0060552997 -0.42336103 -0.13832168 0.2821997
000130 cd c8 5d bd 76 b9 80 3e d3 b2 81 be 53 2d e5 be
       -0.054146577 0.25141495 -0.25331745 -0.44761142
000140 90 a2 a5 be 8c 73 f5 3e 6f 1e b5 be 68 32 ef bd
       -0.32350588 0.47939718 -0.3537478 -0.11679536
000150 d3 56 6e be 87 fa a6 3d e9 ce f0 3e 62 2c 0a bd
       -0.23275308 0.08153253 0.4703286 -0.033733733
000160 c9 1e d8 be fb b1 d4 3d 44 71 0a 3f 6c 2a 82 bd
       -0.42210987 0.103855096 0.5407908 -0.063557476
000170 b0 3e fb be 5d c3 a8 be 71 86 f9 3d ea b1 03 bd
       -0.49071264 -0.3296155 0.12183846 -0.032152094
000180 dd 04 88 3e f0 a8 ee 3e f7 eb 2f bf 79 d0 b6 3e
       0.2656621 0.46613264 -0.6871943 0.35705927
000190 8c de ce 3e 2a 94 d7 be 15 02 b0 3e a0 b5 e7 be
       0.40404165 -0.42105228 0.34376588 -0.45255756
0001a0 63 af a8 be da 86 ef 3d 4a 37 32 3e 8e 02 1f 3f
       -0.3294631 0.11695643 0.17403904 0.62113273
0001b0 68 b2 8a be 26 d1 1f 3e 9e d8 a3 3e aa c2 ea 3e
       -0.27089238 0.15607128 0.32001203 0.45851642
0001c0 1b 7f 98 be 2c 1a 99 be 1d e4 36 be db 4e 3a bf
       -0.29784474 -0.2990278 -0.17860456 -0.72776574
0001d0 90 aa 06 3c f1 e6 e6 3d ca 2c 93 3e 3f fe 33 bf
       0.008219376 0.11274517 0.2874511 -0.70309824
0001e0 ea 02 49 3e ca 37 5d 3e 70 d1 90 be eb 94 61 3c
       0.19630018 0.21603313 -0.28284788 0.013768415
0001f0 41 96 30 bf 79 fa ac 3e 73 c1 23 bf d9 cd 02 be
       -0.6897927 0.33784845 -0.63967055 -0.12773837
000200 1a 76 c7 bd 38 3d 27 3f a8 58 b6 bd ef ee 0e be
       -0.09739323 0.6532779 -0.089036286 -0.13958333
000210 23 c8 0a 3f 3c 0c 86 bd a9 d0 31 3f aa 79 0b 3e
       0.54211634 -0.06545302 0.69459015 0.1362063
000220 14 60 1f 3e ec f5 06 3f 53 5c af be d0 92 33 be
       0.15563995 0.52718997 -0.34250125 -0.17536473
000230 64 15 d1 3e 42 05 d8 be 66 3c 1b bf 40 b2 f9 be
       0.40836632 -0.4219151 -0.60639036 -0.48768806
000240 c4 68 bf be 6a bd 74 be b1 11 9b bd 32 81 26 be
       -0.37384617 -0.2390038 -0.07571734 -0.16260222
000250 da 12 81 3e 0b b5 ad 3e 78 8b 92 3e c5 46 6e 3e
       0.25209695 0.33927187 0.2862203 0.23269184
000260 d3 73 42 3d f1 a8 28 3d b1 b4 4c 3d bb 80 37 3f
       0.04747374 0.04117674 0.04997701 0.716808
000270 7d f0 f7 be e4 e1 16 bf 2b aa 75 3e c2 30 a4 3d
       -0.48425665 -0.5893843 0.23990695 0.08017112
000280 f8 6b 00 3d 88 4e 6f 3e a0 ff 2f bf de ac cb be
       0.031352967 0.23369801 -0.6874943 -0.39780325
000290 2b d5 ef 3c 86 20 03 3e 8a e8 01 bf 12 20 00 bf
       0.029276451 0.12805375 -0.5074545 -0.50048935
0002a0 6a 5b 1f bd b6 31 1e bf 02 18 53 3e a3 16 11 bf
       -0.03890554 -0.617946 0.20614627 -0.56675166
0002b0 78 97 ef be cd c0 a1 be 62 0a 17 3f 7c 19 07 bf
       -0.4679525 -0.31592408 0.5900022 -0.5277326
0002c0 84 ae 6f be ee 7e a0 bd 46 44 73 3f b9 c8 89 be
       -0.23406416 -0.0783671 0.9502605 -0.26910952
0002d0 8c 96 18 3e 2e 74 b6 bd d6 35 3f be 0f cc 99 be
       0.14901179 -0.08908878 -0.1867288 -0.30038497
0002e0 88 64 f8 be 32 ad d8 3e b8 0b ae be 4d e1 6f 3e
       -0.485142 0.42319638 -0.33993316 0.23425789
0002f0 fd 86 79 3c 14 f1 d0 3e 55 85 37 3f 10 0e 55 3e
       0.015229938 0.40808928 0.71687824 0.20806146
000300 a2 72 de be 34 cd da 3e 96 57 a5 be 24 03 08 3e
       -0.43446833 0.42734683 -0.32293385 0.13282448
000310 91 bb e4 3e 94 ba f4 bd e4 9a ba 3e 41 db 8e 3d
       0.44674352 -0.119496495 0.36446297 0.06975413
000320 a4 e4 77 3d c9 56 8c be 7f 30 a1 3e c4 c6 86 3d
       0.060520783 -0.27409962 0.31482312 0.0658088
000330 49 5e fb 3e 52 24 54 3d a8 fe 7d bd 73 55 3f 3f
       0.4909537 0.05179245 -0.062010437 0.7473976
000340 d1 43 84 be f1 6f 01 bf f6 6c 96 bd f8 35 c5 be
       -0.2583299 -0.50561434 -0.073450014 -0.38517737
000350 5b 11 fd bd 2d 3c 91 be 91 10 75 3e e1 04 94 bc
       -0.12356826 -0.28366223 0.23932101 -0.018068733
000360 23 ce 90 3e 5c ad 13 3f b4 ad 06 3f a3 ad 32 be
       0.2828227 0.576864 0.526088 -0.1744905
000370 9e 05 0a bf 4f 28 bd be 0c 6d dc 3d f6 6c 00 be
       -0.5391482 -0.36944816 0.107629865 -0.12541565
000380 6a 5c 3c bf 68 a4 3d bf 6f 0c 5b be c1 24 c7 3d
       -0.7357851 -0.7407899 -0.21391462 0.09723807
000390 6f b8 8f be 9c 43 82 bc ae 3d 00 3f a1 04 8a 3d
       -0.280704 -0.01590138 0.50094116 0.06739164
0003a0 9b 70 12 be a8 23 da be 5b af 0e bf 19 5e ce be
       -0.14300768 -0.4260533 -0.5573632 -0.40306166
0003b0 2c 06 bf 3d 54 62 03 3e 20 c3 d6 3e de cc f5 3e
       0.09327349 0.12830478 0.41945744 0.48007864
0003c0 2a 9c 94 3e 7a ae 81 be 23 2f 52 3e b7 cd 82 be
       0.29025394 -0.25328428 0.20525794 -0.25547573
0003d0 52 f3 83 3e 64 0c 6d 3f 3d 1d 44 3e 92 61 07 3e
       0.25771576 0.9259703 0.19151779 0.13220814
0003e0 a8 58 31 3e 86 4a a0 3e b5 1d bc bd a7 47 96 be
       0.17318976 0.31306857 -0.09185354 -0.2935154
0003f0 7e b4 1d bf cd 43 1b bf 9a 6f ad 3d 69 15 02 3f
       -0.61603534 -0.6065033 0.08468552 0.5081392

bias f4 [24]
000000 22 f8 a2 3d ed ca f3 3e af af 93 3e 44 cd 0e bc
       0.07957484 0.47615758 0.28844973 -0.008715931
000010 62 40 ca 3e f7 98 10 3f 71 43 93 3e fb 61 77 bd
       0.39502245 0.56483406 0.2876239 -0.060396176
000020 47 da 1c 3e 3f dc 92 3e d4 8b ac bd 66 53 c8 bd
       0.15317641 0.2868366 -0.084251076 -0.09781532
000030 3a 48 d4 be 1b 9e 9a 3e 4a 09 01 3e 56 20 52 bd
       -0.41461354 0.3019875 0.126012 -0.05130037
000040 34 b4 b5 3c b6 34 b2 3e 5a b6 c3 3e 0b c2 13 be
       0.022180654 0.3480584 0.3822506 -0.1442949
000050 b2 e2 ed 3d 2f a8 f8 3d 95 39 80 3e b1 d4 ac 3e
       0.11615504 0.121414535 0.25043932 0.3375602

weight f4 [8, 24]
000000 00 1d 43 3e aa 45 ab be 16 89 02 3f 4b 4d ec bd
       0.19054031 -0.33451587 0.50990427 -0.1153818
000010 13 7b c6 3e e2 4d a7 be ca 0c a8 be 01 2e 01 bf
       0.38765773 -0.32676607 -0.32822257 -0.5046082
000020 d1 46 e9 3e d2 6c 76 bf a7 15 76 be 91 de 08 bf
       0.4556184 -0.96259797 -0.24031697 -0.5346461
000030 6c b3 be 3f 35 e9 fc bd a8 5b 69 be fe 61 3e 3e
       1.4898505 -0.12349168 -0.2278887 0.18592069
000040 25 3a 02 3f 10 2f a7 bd 55 41 a9 3f 92 6d 0a 3f
       0.5086997 -0.08163273 1.3223063 0.5407344
000050 a8 62 5a 3f 2c 42 fd 3e 8c ef 38 3f ad 8a f6 bd
       0.8530679 0.49464548 0.7224052 -0.12038169
000060 38 16 0e bf 2d 42 67 3f 22 a6 6d 3f 7b d9 78 3f
       -0.55502653 0.9033535 0.92831624 0.9720685
000070 5c 33 42 3f 55 8d b9 3e 09 e9 ee 3e fc b8 55 3f
       0.7585962 0.3624064 0.46662167 0.8348539
000080 79 1b 8a be 65 c8 bb 3e ae ea a6 3e ec dc 1c 3f
       -0.26974085 0.36676326 0.3260092 0.612746
000090 5e ea 47 bf 5a 73 36 3f 02 1a 3d 3f 98 61 3b 3f
       -0.7809199 0.7126976 0.7386781 0.7319579
0000a0 13 7c 5e bf 35 f7 25 3f 9b cf 2d bf f8 af fc be
       -0.8690807 0.64830333 -0.67894906 -0.49353004
0000b0 ac bf 17 bf 21 04 a1 bf 91 aa 38 bf e6 d6 0b bf
       -0.59276843 -1.2579385 -0.72135264 -0.54624784
0000c0 81 8d 87 3d dc 48 bf bd ed f3 ee 3d d1 3f a1 be
       0.066187866 -0.09340069 0.11667619 -0.31494
0000d0 87 7f 0f 3f 48 b7 87 be a2 2f 21 bf c5 06 7a bf
       0.56053966 -0.2650702 -0.62963307 -0.9766658
0000e0 46 20 1c 3f 19 fd 4d 3e 19 28 a4 be 1f d1 a9 be
       0.60986745 0.2011608 -0.32061842 -0.3316736
0000f0 85 74 da 3f 00 2e 17 bf 5a 8a 97 bf b5 c1 02 bf
       1.7066809 -0.59054565 -1.1839097 -0.51076823
000100 6a a7 f7 ba 70 39 65 bf 68 45 d5 3f b7 70 dd 3e
       -0.0018894498 -0.8954077 1.6661806 0.43250057
000110 19 f5 7c 3f c2 6e f7 3d a0 da 7f 3f 2d 17 92 3e
       0.9881149 0.12081672 0.9994297 0.28533307
000120 52 c3 04 c0 59 7b 1d 3f a4 06 26 3f db 81 a2 3f
       -2.0744214 0.6151634 0.6485388 1.2695879
000130 ae 5c ed 3e d4 82 8f 3e 66 27 c3 3e 44 a8 3c 3f
       0.4635977 0.280295 0.38115996 0.7369425
000140 d0 b6 74 be 0c 0f 95 3e 12 de 63 3f d2 da 0c 3f
       -0.23897862 0.29113042 0.8901073 0.55021393
000150 47 75 16 bf ab 56 34 3f 09 32 4a 3f d2 9c f9 3e
       -0.587727 0.70444745 0.789826 0.48752457
000160 e7 d5 9a be 4e 5e 28 3f d3 58 d5 be 1b ba 3c bf
       -0.3024132 0.657689 -0.4166933 -0.73721474
000170 ee 10 d5 be ce fb 9e bf f7 c2 36 bf aa ae 84 bd
       -0.4161448 -1.2420595 -0.7139124 -0.06478627
000180 e7 ad cc bd b5 7d fa bd 3b a8 35 bf 5c 09 1c bf
       -0.09994107 -0.12231008 -0.70959824 -0.6095178
000190 55 0b 21 bb 14 15 6c be 30 b3 0b be 09 9b 90 be
       -0.0024573405 -0.23054916 -0.13642573 -0.28243282
0001a0 68 9d ce 3e 22 7a a5 3e 05 06 aa be df 39 91 be
       0.40354466 0.32319742 -0.33207718 -0.28364465
0001b0 69 ed 94 3f 75 84 2b be 17 2b 05 bf 0b 5d 56 be
       1.1634952 -0.16749747 -0.52018875 -0.2093393
0001c0 7c 6f 47 3e a5 94 53 be 58 d6 b9 3f a4 5a f4 3e
       0.19476122 -0.20662172 1.4518538 0.47725403
0001d0 0c d9 52 3f 16 21 85 3e 5c ae a4 3f 71 fc c5 3d
       0.8236244 0.26001805 1.286571 0.0966729
0001e0 1a fe c2 3e 2f 69 96 be d0 77 f3 3e 13 12 63 be
       0.3808449 -0.29377124 0.47552347 -0.22174864
0001f0 0d 19 ae 3e 94 10 37 be 47 3f 1e bf 72 05 cf be
       0.34003487 -0.17877418 -0.61815304 -0.40433842
000200 2a e3 0b 3f 4c 50 59 bf b6 14 1a be b9 0c c5 be
       0.546435 -0.8488815 -0.15046963 -0.3848627
000210 9e 66 e5 3f a5 3e 84 be 74 fa ab be d8 6c 4f 3c
       1.7921941 -0.25829044 -0.33589518 0.012660228
000220 56 a4 8b 3e 65 7f 91 be 58 b6 be 3f c8 88 43 3f
       0.27273816 -0.28417507 1.4899397 0.76380587
000230 bc 1c 86 3f b6 30 72 3e d2 92 4e 3f 8c 11 09 bd
       1.0477519 0.23651394 0.8069278 -0.033464
000240 ac a9 10 3e 9e 35 59 be f9 4e b6 3e 67 e7 d7 be
       0.14127225 -0.2121186 0.35607126 -0.42168733
000250 cf 2d 08 3f 5d b5 73 bd 6e a0 6b bf 4c b1 75 bf
       0.531949 -0.059499133 -0.9204167 -0.9597366
000260 ef 01 0b 3f ab 74 36 be 11 b4 93 be 20 0f 2c be
       0.54299825 -0.17817943 -0.28848317 -0.16802645
000270 a8 39 e3 3f b9 86 40 bf a9 e4 55 bf 44 69 cd be
       1.775197 -0.7520557 -0.8355203 -0.40119374
000280 c0 44 16 be 91 15 32 bf 17 16 b4 3f 9c 81 f6 3e
       -0.14674664 -0.6956416 1.4069241 0.4814576
000290 af db 5f 3f 53 9a 9f 3d 24 aa 9c 3f 73 c7 b0 3e
       0.87444586 0.07793107 1.2239423 0.34527168
0002a0 1e 16 c7 be 0f 8b 37 3f 5a 26 98 3f 76 9f 1d 3f
       -0.38884062 0.7169656 1.1886704 0.61571443
0002b0 4c 2e 5e 3f e7 0f e2 3e c7 34 08 3f fe eb 4e 3f
       0.86789393 0.44152758 0.5320553 0.80828846
0002c0 40 5d 49 3d 24 78 f0 3e 23 31 b1 3d 32 b1 d9 3e
       0.049161196 0.4696666 0.0865195 0.42518002
0002d0 e7 e7 46 bf c9 83 11 3f ce c7 37 3f 05 5f e3 3e
       -0.77697605 0.56841713 0.7178925 0.44408432
0002e0 ad 9e 59 bf 4a 7b fa 3e e4 9d 22 bf 66 32 45 be
       -0.85007745 0.48922187 -0.6352217 -0.19257507
0002f0 47 0f 83 bf 44 77 6c bf fa 83 58 bf 1f 35 dd be
       -1.0239037 -0.92369485 -0.8457638 -0.4320459

bias f4 [8]
000000 19 ec b0 3d 88 d3 72 3e 77 95 67 3d 42 11 3a 3e
       0.08638782 0.23713505 0.056539025 0.18170646
000010 0d b5 ce 3c 97 53 4d be 1d 6b cc 3d 51 30 e7 3d
       0.025232816 -0.20051418 0.09981368 0.112885125

weight f4 [1, 8]
000000 4e c4 ca 3f 1e b7 18 c0 62 90 10 40 83 28 10 c0
       1.5841157 -2.3861766 2.2588124 -2.2524726
000010 b3 39 d0 3f d6 53 ea 3f a3 50 33 40 72 01 f4 bf
       1.6267608 1.8306835 2.8017967 -1.9062941
