latest version/heart attack model/net/3hiddenlayerwithL2normAndDropout.pt (torch, 5743 bytes, 7 tensors)

weight f4 [20, 13]
0	0x3d10ebbb	0.03538106
1	0xbdaa0254	-0.08301225
2	0xbe3a6548	-0.18202698
3	0x3e8749d1	0.26423505
4	0xbe108216	-0.14112124
5	0x3edcdcaa	0.43137103
6	0x3f2e09b1	0.6798354
7	0x3ecfb605	0.40568557
8	0xbe921a48	-0.28535676
9	0xbe1d7568	-0.15376818
10	0x3e1fb664	0.1559692
11	0x3e5544d2	0.20827034
12	0x3ec1a16d	0.3781847
13	0xbe47bbad	-0.19505186
14	0x3f050939	0.519672
15	0xbebc86a5	-0.36821476
16	0x3ec8ff83	0.3925744
17	0xbe047c7a	-0.12938109
18	0x3e5eff37	0.21777044
19	0xbcc3ccfe	-0.023901459
20	0x3ef244b4	0.4731804
21	0xbdc8bb5c	-0.09801361
22	0x3db851e0	0.089999914
23	0x3d4c08bd	0.04981302
24	0xbe998f33	-0.29992065
25	0xbd9d6f22	-0.076872125
26	0x3ecf3773	0.40471992
27	0x3b9fb39e	0.004873707
28	0xbe86040a	-0.26174957
29	0x3e531504	0.20613486
30	0xbf1e0a78	-0.61734724
31	0x3d981958	0.07426709
32	0x3e0a57e9	0.13510098
33	0xbc9fdad8	-0.019513533
34	0x3e46b2ab	0.19404094
35	0x3e0c8f2a	0.13726488
36	0xbdf87387	-0.1213141
37	0xbf7cf5b2	-0.988124
38	0x3d56ee0d	0.052473117
39	0x3d638ffd	0.05555724
40	0xbe187803	-0.14889531
41	0xbef8cceb	-0.4859384
42	0xbed951bf	-0.4244518
43	0x3ebab5dd	0.36466876
44	0x3e186311	0.14881541
45	0x3ecea0b5	0.40356985
46	0xbef89d5c	-0.48557556
47	0x3e575d05	0.21031578
48	0x3f05ae35	0.52218944
49	0xbe85c5ff	-0.26127622
50	0x3dc8a491	0.097970136
51	0xbe7cb716	-0.24679217
52	0xbea5f451	-0.3241296
53	0xbe9a089a	-0.30084687
54	0xbd39145e	-0.04518544
55	0x3dfc79dd	0.12327931
56	0x3ee651bc	0.44984233
57	0xbef0bfc1	-0.47021297
58	0xbda8e640	-0.08247042
59	0x3d1a6d36	0.037701808
60	0xbe52e418	-0.20594823
61	0x3e8422fc	0.2580794
62	0xbeaafee2	-0.33397585
63	0xbe8e5966	-0.2780258
64	0xbf1f1484	-0.6214068
65	0x3ecc2103	0.39868936
66	0xbe9afc46	-0.30270594
67	0xbef431ed	-0.4769434
68	0x3f09c3f0	0.538146
69	0x3ed28a90	0.4112134
70	0x3dfd5653	0.12369981
71	0xbe5e9bdc	-0.21739143
72	0xbcc7733d	-0.024346942
73	0x3e982a1e	0.29719633
74	0xbeed5580	-0.46354294
75	0xbe28b31f	-0.1647458
76	0x3d8ae0f3	0.06781187
77	0xbd01d2dd	-0.031695236
78	0xbf307bf3	-0.6893913
79	0xbeb9059d	-0.36137095
80	0xbeaacdfd	-0.33360282
81	0x3e2117ec	0.15731782
82	0x3e91e681	0.28496173
83	0xbdaf07a4	-0.08546379
84	0x3ed19a23	0.4093791
85	0x3eb8253c	0.35965908
86	0x3e75843e	0.23976228
87	0xbe63b0ff	-0.22235487
88	0x3eaadc12	0.33371025
89	0x3e997e90	0.29979372
90	0x3d196580	0.037450314
91	0xbe09cef3	-0.13457851
92	0xbe930da7	-0.28721353
93	0x3ee1cc37	0.44101116
94	0x3c749f68	0.014930584
95	0xbdbfd4aa	-0.09366734
96	0x3e01b530	0.12666774
97	0xbe82cc4a	-0.25546485
98	0xbda5b8fc	-0.080919236
99	0x3e1e111e	0.15436217
100	0xbd6c1070	-0.057632864
101	0x3f2a874f	0.66612715
102	0xbf060e10	-0.5236521
103	0xbb458da3	-0.0030144237
104	0x3ede592a	0.43427402
105	0x3e96948c	0.29410207
106	0xbdb986c2	-0.09058906
107	0xbe2de210	-0.16980767
108	0x3e4ffaa7	0.2031046
109	0x3e775b1a	0.24155846
110	0xbee94ef6	-0.45568055
111	0xbdfd8569	-0.123789616
112	0x3dea5a32	0.11442985
113	0xbe2f787a	-0.17135802
114	0xbda922c1	-0.08258582
115	0x3f16d38d	0.5891655
116	0x3f21dde5	0.6322921
117	0xbe87eb22	-0.2654658
118	0xbc82d7b3	-0.015971994
119	0x3ef0316f	0.46912715
120	0xbc840e68	-0.01612015
121	0x3e8122d7	0.25221893
122	0x3d7a4f76	0.061110936
123	0xbecec500	-0.40384674
124	0x3eaf6227	0.34254572
125	0x3f1bb7c3	0.60827273
126	0x3b907187	0.0044080648
127	0xbbcdb3ea	-0.006277551
128	0xbe3c52cb	-0.18390958
129	0x3e16675e	0.14687869
130	0x3d1a4bbe	0.03766989
131	0xbf0c899a	-0.54897463
132	0xbd71062d	-0.05884378
133	0x3dbcbe0e	0.092159376
134	0xbef23952	-0.47309357
135	0xbca0db7d	-0.01963591
136	0x3e12bf6b	0.14330833
137	0xbe70a69c	-0.23501056
138	0x3f13270e	0.5748147
139	0x3d86401b	0.06555196
140	0x3ede0cb9	0.43369082
141	0xbe8f4bea	-0.27987605
142	0xbebf20ca	-0.37329704
143	0x3f19b751	0.60045344
144	0xbedee808	-0.435364
145	0xbdf6033b	-0.12012335
146	0xbb8c5993	-0.004283139
147	0xbc8dbc55	-0.017301718
148	0x3ebf2977	0.37336323
149	0x3bd4e691	0.006497212
150	0xbed2e399	-0.41189268
151	0x3f07970e	0.52964866
152	0x3f0e5754	0.55602
153	0xbe330b38	-0.17484748
154	0x3ea7bd11	0.32761434
155	0xbf061c8c	-0.5238731
156	0xbf36ad08	-0.71357775
157	0xbe748d2e	-0.23881981
158	0xbe10cca8	-0.1414057
159	0xbd5cdc2e	-0.053920917
160	0xbe8994e7	-0.26871416
161	0xbdec5b56	-0.115408584
162	0xbefc12b3	-0.49233016
163	0xbe00e8db	-0.12588827
164	0x3de3d399	0.111243434
165	0x3ee3c781	0.44488147
166	0x3e8c90a6	0.27454108
167	0x3eb5c686	0.35503024
168	0xbe53295b	-0.20621245
169	0xbe6d0137	-0.23144995
170	0x3efcfabe	0.4941005
171	0xbed89e96	-0.4230849
172	0x3e0703c0	0.13185024
173	0xbdc7dcc7	-0.09758907
174	0x3dea5ac5	0.11443094
175	0xbe9ebd4e	-0.31003803
176	0x3dc33c56	0.095329925
177	0xbe6ce3d4	-0.23133785
178	0xbe95c924	-0.2925502
179	0x3e583ef5	0.21117766
180	0x3dba538b	0.09097966
181	0x3f0dfee6	0.5546707
182	0xbeaf07f4	-0.34185755
183	0xbedc96cf	-0.43083808
184	0xbeba1e4f	-0.3635125
185	0x3eb4d893	0.35321483
186	0xbe3b311c	-0.18280452
187	0x3ea94d3c	0.33066738
188	0xbd3e80b9	-0.04650948
189	0x3eeae991	0.45881322
190	0x3eebcc7d	0.4605445
191	0x3ecd8ca9	0.40146378
192	0xbe8b9561	-0.27262405
193	0x3d35569b	0.044272047
194	0x3df4368c	0.119244665
195	0x3df8a706	0.12141232
196	0x3cf7ba99	0.030240344
197	0xbe99a819	-0.3001106
198	0x3e2027d7	0.15640198
199	0xbea33c93	-0.31882152
200	0xbe8aa9bd	-0.27082625
201	0xbd91b4bf	-0.07114553
202	0x3cd987ce	0.026554015
203	0x3e741861	0.23837425
204	0x3f050568	0.51961374
205	0xbe4fa707	-0.2027856
206	0x3dfbf55f	0.1230266
207	0x3f2a4294	0.6650784
208	0x3eace29d	0.33766642
209	0xbea6356d	-0.32462636
210	0xbe7c45ee	-0.24636051
211	0xbe0e3d29	-0.13890518
212	0x3e18c2b5	0.14918025
213	0x3cea436b	0.0285966
214	0x3d3641b4	0.044496253
215	0xbcdb79f1	-0.026791545
216	0x3ea53f08	0.32274652
217	0xbdc3ccaf	-0.09560525
218	0x3e376758	0.17910516
219	0xbf7ed12f	-0.9953794
220	0xbe77f1fb	-0.24213402
221	0xbe458767	-0.19289933
222	0xbf090115	-0.53517276
223	0x3ef22cb9	0.47299746
224	0x3f06b024	0.5261252
225	0x3e093975	0.13400824
226	0x3dd35f0e	0.103208646
227	0xbe72cc44	-0.23710734
228	0x3db7cae5	0.08974246
229	0x3e34a67c	0.17641634
230	0xbd1d4709	-0.038397823
231	0x3e864934	0.26227725
232	0x3da338c1	0.07969809
233	0xbe37ac34	-0.17936784
234	0x3dfc30d4	0.12314001
235	0x3e40686f	0.18789838
236	0xbd38fe85	-0.045164604
237	0xbb642f66	-0.003481829
238	0x3ba178cf	0.0049277316
239	0x3f130085	0.5742267
240	0xbc70a2cc	-0.014687251
241	0x3e38835d	0.18018861
242	0xbeb16f51	-0.3465524
243	0xbdc6731e	-0.096899256
244	0xbe82eb32	-0.25570065
245	0xbf10b338	-0.56523466
246	0x3e765359	0.24055232
247	0x3f100fe2	0.56274235
248	0xbeec50ec	-0.46155488
249	0x3e09ee26	0.13469753
250	0x3aa63d90	0.0012683142
251	0x3ef72964	0.48273766
252	0xbec8fea1	-0.39256766
253	0x3d0b1804	0.03395845
254	0xbf0e8a2b	-0.5567958
255	0xbeae30ca	-0.34021598

bias f4 [20]
0	0x3df877d7	0.12132233
1	0x3e2f2815	0.17105134
2	0x3ee0807c	0.43848026
3	0x3e75f802	0.24020389
4	0xbda8b8dd	-0.08238385
5	0x3ee24006	0.4418947
6	0x3e782192	0.24231556
7	0x3dc1350e	0.094339475
8	0x3e480aa0	0.19535303
9	0xbd77142e	-0.06032198
10	0x3dc2eefa	0.095182374
11	0x3eba2934	0.3635956
12	0x3ecada57	0.39619705
13	0x3d965dba	0.07342096
14	0x3ea644c1	0.3247433
15	0x3f03cc80	0.5148392
16	0x3e503b7f	0.20335196
17	0x3ca75cd0	0.020429999
18	0xbdfa55f9	-0.12223429
19	0xbeaafaca	-0.33394462

weight f4 [8, 20]
0	0x3ea793bc	0.327299
1	0x3f0c1fc0	0.54735947
2	0x3f5423e8	0.8286729
3	0xbe06e11c	-0.1317181
4	0x3ebe58d3	0.37177143
5	0xbefdbe7b	-0.49559388
6	0x3ed55ba8	0.4167149
7	0x3d575e46	0.05258014
8	0x3f49a150	0.7876177
9	0x3eeb3033	0.4593521
10	0x3f4cd769	0.8001619
11	0x3dd253cf	0.102698915
12	0x3f1a9e65	0.6039794
13	0x3eca3134	0.39490664
14	0xbe774d22	-0.24150518
15	0xbe13eac1	-0.1444502
16	0x3d96fc96	0.07372396
17	0x3dba9e2b	0.091121994
18	0x3f07bef0	0.5302572
19	0x3fa26b26	1.2688949
20	0x3ea9f556	0.3319499
21	0x3f0f18f2	0.5589744
22	0x3f159211	0.58426005
23	0xbe19eea4	-0.1503244
24	0x3ecd8d2a	0.40146762
25	0xbf195c99	-0.5990692
26	0x3f0b4d7f	0.54415125
27	0x3d15cca5	0.036572117
28	0x3f1e03d9	0.6172462
29	0x3eddf0ec	0.4334787
30	0x3f15cdf5	0.5851739
31	0x3e91f482	0.28506857
32	0x3f166939	0.5875431
33	0x3ea0a063	0.31372365
34	0xbdefd40c	-0.117103666
35	0xbea9c5fb	-0.3315886
36	0x3de8afad	0.113616325
37	0x3e241fe5	0.16027792
38	0x3f08a072	0.5336982
39	0x3f7c07f3	0.9844963
40	0xbec27beb	-0.37985167
41	0x3e9857cd	0.29754487
42	0xbc4da2e2	-0.012551041
43	0x3efb95b1	0.49137643
44	0xbee11e02	-0.43968207
45	0x3ed3b6df	0.41350457
46	0x3e8b1a14	0.27168334
47	0xbee919f0	-0.455276
48	0x3de9744e	0.113991365
49	0xbebbd559	-0.3668621
50	0xbe8336e7	-0.25627825
51	0x3f0a7bab	0.5409495
52	0x3e71916b	0.23590629
53	0x3ee2373b	0.44182763
54	0x3f0295a3	0.5100958
55	0x3f0a53a6	0.5403389
56	0xbf2efde6	-0.6835617
57	0xbf1d03df	-0.6133403
58	0xbe891710	-0.26775408
59	0xbda65ae5	-0.081228055
60	0xbec08495	-0.37601152
61	0x3e9f5e34	0.3112656
62	0xbd9d824d	-0.076908685
63	0x3eef6718	0.46758342
64	0xbf01f733	-0.5076782
65	0x3f0157e6	0.5052475
66	0x3e919754	0.28435767
67	0xbf0079b6	-0.50185716
68	0x3e37a161	0.17932655
69	0xbe8c3224	-0.27382004
70	0xbec6745b	-0.38760647
71	0x3f345feb	0.7045886
72	0x3ea5cc23	0.32382306
73	0x3e8ce340	0.27517128
74	0x3f00f810	0.50378513
75	0x3eff9ded	0.49925175
76	0xbf26b688	-0.6512227
77	0xbf17e3f1	-0.59332186
78	0xbeb1b838	-0.3471086
79	0xbe6027cd	-0.21890183
80	0x3ea5d75c	0.3239087
81	0x3f040aab	0.5157878
82	0x3f5b4678	0.856544
83	0xbe4650b0	-0.19366717
84	0x3eb72e04	0.35777295
85	0xbf1bc249	-0.6084333
86	0x3ed37ca4	0.4130603
87	0xbd5b4877	-0.053535905
88	0x3f3604d4	0.7110112
89	0x3eb3c313	0.35109767
90	0x3f368b9d	0.7130678
91	0x3d6d1322	0.057879575
92	0x3f13b9c5	0.57705337
93	0x3eb2a13f	0.34888646
94	0xbdcc605f	-0.09979319
95	0xbebbdead	-0.36693326
96	0x3e392430	0.1808021
97	0x3e134221	0.14380695
98	0x3ebcd193	0.36878642
99	0x3f812cce	1.0091798
100	0xbec149eb	-0.37751707
101	0x3e6301a7	0.22168599
102	0xbc272cd7	-0.010203562
103	0x3f0f7a72	0.5604621
104	0xbebc4356	-0.36770123
105	0x3ec7ee5b	0.39049038
106	0x3e93ae72	0.2884403
107	0xbee7c30b	-0.45265993
108	0x3e8a51d2	0.2701555
109	0xbea35d3d	-0.31907073
110	0xbea68f88	-0.3253138
111	0x3f346857	0.7047171
112	0x3e5e1d2a	0.21690813
113	0x3ed635fc	0.41838062
114	0x3f20d87e	0.6283034
115	0x3ee33b98	0.44381404
116	0xbf2c4b3e	-0.6730231
117	0xbf016392	-0.5054256
118	0xbedc795d	-0.43061343
119	0xbe814c15	-0.25253358
120	0xbed9f61b	-0.42570576
121	0x3e5f539f	0.21809243
122	0xbd05e0a2	-0.03268493
123	0x3eebc605	0.46049514
124	0xbee18520	-0.4404688
125	0x3ed65ada	0.4186619
126	0x3e936a27	0.28791925
127	0xbeccb459	-0.39981344
128	0x3e19d2a8	0.15021765
129	0xbe64941c	-0.22322124
130	0xbeaeb452	-0.34121948
131	0x3f25b5b9	0.6473041
132	0x3e9420b0	0.2893119
133	0x3eafae24	0.34312546
134	0x3ee939b3	0.45551834
135	0x3eddbf80	0.43310165
136	0xbf3191dd	-0.69363195
137	0xbf033691	-0.51255137
138	0xbead42de	-0.33840078
139	0xbdd96278	-0.106144845
140	0xbeb193d8	-0.34683108
141	0x3e954ee9	0.29161766
142	0xbe37a039	-0.17932214
143	0x3ecde864	0.40216362
144	0xbefc5dad	-0.4929022
145	0x3eba9d0f	0.3644795
146	0x3e57e3dd	0.21083017
147	0xbee531cc	-0.44764555
148	0x3de20109	0.11035354
149	0xbea011b1	-0.31263497
150	0xbe7d2b21	-0.24723484
151	0x3efb3f40	0.49071693
152	0x3e946162	0.28980547
153	0x3e862298	0.26198268
154	0x3f164962	0.58705723
155	0x3edd8b8a	0.43270522
156	0xbed766f0	-0.42070723
157	0xbef264cb	-0.47342524
158	0xbe141498	-0.14460981
159	0xbd82cf90	-0.06387246

bias f4 [8]
0	0xbec26317	-0.37966225
1	0xbecc6cb8	-0.39926696
2	0x3d8f4e00	0.06997299
3	0xbbe112af	-0.0068686823
4	0xbe88609f	-0.26636216
5	0xbc97781c	-0.01848989
6	0xbc9a0d55	-0.018805185
7	0xbcd24774	-0.025668837

weight f4 [4, 8]
0	0x3f92b190	1.1460438
1	0x3f5f8206	0.87307775
2	0xbfb18a27	-1.3870286
3	0xbf9fd02e	-1.2485406
4	0x3f5c1fae	0.8598584
5	0xbfa69d75	-1.3016802
6	0xbf8a5651	-1.0807592
7	0xbf8ddb13	-1.1082481
8	0xbe509111	-0.20367838
9	0xbcc48598	-0.023989484
10	0x3ea2e68a	0.31816512
11	0x3ef8e663	0.4861327
12	0xbe2f2aef	-0.17106222
13	0x3ee5e22b	0.44899115
14	0x3eefa624	0.46806443
15	0x3ec119ac	0.377149
16	0xaf81f2a0	-2.363736e-10
17	0xaf4c1b8c	-1.8563479e-10
18	0xae7d3770	-5.757478e-11
19	0x2e25e2ae	3.771799e-11
20	0xaf4c4b8c	-1.8580532e-10
21	0xac98b814	-4.3405366e-12
22	0x2e238130	3.717665e-11
23	0x2e882972	6.191926e-11
24	0xbeaf5a9d	-0.3424882
25	0xbebaf1ad	-0.3651251
26	0x3f056224	0.52102876
27	0x3f0453d3	0.51690406
28	0xbeaf0dd6	-0.34190243
29	0x3f070b26	0.52751386
30	0x3eea06e8	0.45708394
31	0x3ede5815	0.43426576

bias f4 [4]
0	0xbe04dae8	-0.12974131
1	0x3f6a549c	0.91535354
2	0xaf22d607	-1.4809852e-10
3	0x3fb3eec3	1.4057239

weight f4 [1, 4]
0	0x4011dda2	2.2791524
1	0xbf7f1f34	-0.9965699
2	0x308b3403	1.0128364e-09
3	0xbfdbd91b	-1.717563
