latest version/heart attack model/net/3hiddenlayer.pt (torch, 5551 bytes, 7 tensors)

weight f4 [20, 13]
00000000: c5d9 a33e 33ed 843e afa8 5a3d 2e93 cbbe
00000010: 5e6a 0d3f b0d9 ddbe f97c 103f 2f5d 78be
00000020: a294 58bd 8c3c 70bf 9010 863e a417 9a3e
00000030: 5716 55be 5048 a53e a14a 17bd 7fbf b83e
00000040: 3edf 12bf 5342 4f3e 0924 563d 0840 f63c
00000050: 1085 a8be 1b0f b13e 0480 58bf fcfb c13e
00000060: ac30 78be b3ba 26be c617 1fbf f51d d13e
00000070: 1230 26be 2097 10bf 989e 2f3e 624f 323d
00000080: da0c 363e 8db3 d93e 4ab3 f7bc 1ef3 0c3f
00000090: 06ca 313e ccb5 bebc 750b 7f3e 5e14 dc3e
000000a0: d1a7 3bbd dfea 07bf 9f14 893e 0110 813e
000000b0: d538 88bc 81b5 08bf 14f8 00bf 3684 09be
000000c0: dfc8 43bd acc1 abbd 1edb 0a3e 087b 1a3f
000000d0: 63fc 34bc 249b cebd a778 823e eb37 943d
000000e0: 411c abbe 567d 87be 88dd c5be 16cd 3c3e
000000f0: 45d3 053f a0f5 a13e 5555 0a3f 7ce7 d8be
00000100: 9a8c 0ebe 4a71 3bbf 1edb eebe ae38 9ebc
00000110: 330f 033e 21f5 ee3e badd ef3e b3d9 283f
00000120: cc67 d53e cdea 03be 2423 5fbe c505 3c3e
00000130: 8484 4b3f 5ecd b63e e258 9e3d a8e9 d9be
00000140: d302 34bf f9be d73e aba3 82bc 1eb9 b83e
00000150: 48b8 8e3e ff19 17bf 3863 033f 4c9d f23d
00000160: c52b f4be 3402 063f 9013 90be 6cb6 fdbe
00000170: 1b53 1b3f c041 9ebe aeac bbbe ea76 34be
00000180: 525e 893e 83f1 8f3d 4953 22bd 72a9 3dbe
00000190: a023 fb3e 825f 833d c2ef cb3e 7834 5abe
000001a0: f21e 6f3e 5df4 003e 396e e0be dba3 69be
000001b0: 81d2 32be 59b1 97be 6bd6 953e 5294 e03d
000001c0: a2ba 053e c42e 0b3f a1a2 9ebe 5feb 32be
000001d0: 4540 a73d 48ac c3be de7a c8be 9227 b43b
000001e0: c2ec d9be c1f2 abbd 0309 0f3e e215 0ebf
000001f0: fe15 26bf 559a 37be 32b7 0c3f b36f f4bd
00000200: c1c9 d83e 8e78 40bf d082 4bbe 38c8 bf3d
00000210: 77f2 9c3e dab0 043e dbc6 2d3e 4c07 523f
00000220: 3186 48be 20dd 5f3d 89ba 92be b5b6 b4bd
00000230: c3c7 b6be ce21 e73e 0602 783e 4023 fabe
00000240: f476 f6be 4f7b 09be d9cf da3e ec62 403e
00000250: f4c7 14be 7e74 343f fe83 54be d016 3bbe
00000260: 79d2 513f 9482 c93e fc40 15be 3413 0d3c
00000270: 3b10 473f 9e4c 043e 6c22 04bf d790 6c3e
00000280: 7672 013f 23d4 d43e f8e9 ddbe 4b22 8f3e
00000290: 2d06 8c3d 8491 ae3d ac97 b63d ea8c 993e
000002a0: c964 4bbe e0c6 563d 579c 4b3f 8f52 8ebe
000002b0: 082e 5f3e 483b fc3d 2ded b13e 5316 f6be
000002c0: b161 f03e 36ec bd3e de0d cebd cffc b13d
000002d0: c4f9 6a3e 8a55 c83e fbe4 8e3e eaa2 30bd
000002e0: 564b a9be b4b0 ac3d 20b4 c2bd dbe5 213e
000002f0: cd92 a1be 73a1 433f cfda 823e 5fd9 61bd
00000300: b571 39bd 6de0 a83d 2b92 c13e f689 abbd
00000310: be3c 433e 8953 4bbe a64c 1a3e e1bf 86be
00000320: 1b77 e2bd a28a 2bbd fefe 1b3f 4a5b f2bd
00000330: a91e e33e 8747 a9be ea17 7dbf 7db7 b4be
00000340: a356 8ebe 278a 7bbe c16a 523d 3b46 4fbe
00000350: 734d 04bf ef4f ff3c b51e eabe d56b b73e
00000360: beb7 0d3b ca19 b3be f644 0cbd b9ba ef3b
00000370: a423 463f e57a 3b3d c2d8 f6be 9506 d7be
00000380: 3893 77bd 918e 9f3e 3523 08bf a6fe dc3e
00000390: 292e f43e 2377 b2be b0c1 8ebe 11bc 233e
000003a0: 4a25 80bf cd1e 79be c4d9 0dbe 6636 a63c
000003b0: bfe0 f13d c1d0 b1bd a6fc 31bf fb4e 5a3e
000003c0: efae 91be eacc 2b3e ac1a 983e ca0c 8bbd
000003d0: ff4c a23e 9de5 41bf 0c4b afbd 7a10 1dbe
000003e0: 3db8 bfbe 1d89 80be 99f3 4d3d a084 e8be
000003f0: f3a2 3dbe bf2d 80be 32b6 413e 8d29 543e
0.32002082 0.2596222 0.053383525 -0.39760727 0.5524043 -0.43330145 0.56440693 -0.24254297
-0.052876122 -0.9384239 0.2618451 0.3009616 -0.20809303 0.32281733 -0.036936406 0.360836
-0.5737189 0.20240144 0.05228046 0.03005983 -0.3291402 0.34581837 -0.84570336 0.3788756
-0.24237317 -0.16282158 -0.6214565 0.40843168 -0.16229275 -0.564806 0.17150342 0.043532737
0.1777834 0.425198 -0.030236859 0.5505847 0.17362222 -0.023280047 0.24906714 0.4298429
-0.04581434 -0.5309276 0.26773545 0.25207523 -0.016628662 -0.53401953 -0.5037854 -0.1342934
-0.047798987 -0.08386549 0.13560149 0.6034398 -0.011046502 -0.100881845 0.25482675 0.07237228
-0.33419994 -0.2646281 -0.38645577 0.18437609 0.52275497 0.3163271 0.54036456 -0.4236411
-0.13920823 -0.7321974 -0.46651548 -0.019314136 0.12798767 0.46671394 0.4684885 0.6595718
0.41680753 -0.12882538 -0.21790749 0.18361576 0.7949908 0.35703558 0.07731797 -0.42561078
-0.7031681 0.42137888 -0.015947184 0.36078733 0.2787497 -0.5902404 0.5132327 0.11846408
-0.47689644 0.5234711 -0.28139925 -0.4955324 0.60673684 -0.30909538 -0.36655182 -0.17623487
0.26829773 0.070284866 -0.03963021 -0.1852167 0.49050617 0.06414701 0.39831358 -0.21309078
0.23351648 0.12593217 -0.43834093 -0.22816412 -0.17463113 -0.29627493 0.2926515 0.1096579
0.13059476 0.54368234 -0.3098345 -0.174726 0.08166555 -0.38217378 -0.3915624 0.005497881
-0.42563444 -0.08395911 0.13968281 -0.5550214 -0.6487731 -0.17929967 0.54967034 -0.119353674
0.42341426 -0.7518395 -0.1987412 0.093643606 0.30653736 0.12958089 0.16970389 0.82042384
-0.1958244 0.05465424 -0.2865794 -0.08823911 -0.3569928 0.45142978 0.24219522 -0.4885502
-0.4813763 -0.13425945 0.427367 0.18787736 -0.14529401 0.7049025 -0.20753476 -0.18270421
0.8196178 0.39357436 -0.14575571 0.008610535 0.7775914 0.12919852 -0.51615024 0.23102127
0.5056528 0.41568097 -0.43342566 0.2795585 0.068371154 0.08523849 0.08915648 0.2999032
-0.19862665 0.052435756 0.7953543 -0.27797362 0.21794903 0.123159945 0.34751263 -0.48063907
0.46949533 0.37094277 -0.10061239 0.086907975 0.2294684 0.3912776 0.27909073 -0.043124117
-0.3306529 0.08432141 -0.09507012 0.15810339 -0.31557313 0.76418227 0.25557563 -0.05513894
-0.045274455 0.08245931 0.3780683 -0.08375923 0.1906614 -0.19856085 0.15068302 -0.26318267
-0.11057874 -0.041880257 0.6093596 -0.11833818 0.4435933 -0.33062384 -0.98864615 -0.3529624
-0.27800474 -0.2456442 0.05137134 -0.20241635 -0.5168068 0.031166045 -0.45726553 0.35824457
0.0021624411 -0.34980613 -0.034245454 0.0073159602 0.77398133 0.0457715 -0.48212248 -0.4199721
-0.060443133 0.31163457 -0.5317872 0.4316303 0.47691467 -0.3485652 -0.27882147 0.1598971
-1.001138 -0.24328156 -0.13852602 0.020289611 0.11810445 -0.08682395 -0.69526136 0.21319191
-0.28453776 0.16777387 0.2970785 -0.06789549 0.31699368 -0.7574099 -0.08559236 -0.15338317
-0.3744525 -0.2510461 0.05028114 -0.45413685 -0.18519191 -0.25034901 0.18917158 0.20718975

bias f4 [20]
00000000: 8161 fc3e 540c ad3e 52bf 27be 9af7 153f
00000010: 2b53 5bbe 9879 8fbe 03ef a6be 8d69 083f
00000020: 01cd 393f 2c2b a13e 3ba2 48be 85f0 833e
00000030: 4759 183f d973 a9bd 28f0 833d edf6 003f
00000040: da34 36bd 7bb4 d53c 65df c63c 627c 1cbd
0.4929314 0.33798468 -0.16381577 0.58580935 -0.21418445 -0.28022456 -0.32604226 0.5328606
0.72578436 0.3147825 -0.19593136 0.2576944 0.59511226 -0.08274049 0.064422905 0.5037678
-0.044483997 0.026087036 0.024276445 -0.03820456

weight f4 [8, 20]
00000000: 4190 363f 48db 343e 6b82 4abd 8328 ea3e
00000010: d69d 02bf d961 debe 7f6f 76bf a87f c53e
00000020: 517e 7bbf 008d b7bf 5dec ce3e 80b0 03bf
00000030: 48bb 723e bd96 49bf ddae c3be 41bc c5be
00000040: 011b 40bf a073 fb3e 0987 493e af29 08bf
00000050: 37fc 01be a03a 32be 9cf9 4dbe 0af1 67be
00000060: c318 913f 056e e03f 5141 48bf 3e8e 03be
00000070: 8c0e 433e d006 943f 2385 5a3f 7614 383f
00000080: 32b4 123d 6ccf cf3e c206 d7be e6ca 533f
00000090: aefe b2bc 39a2 243f 7da4 4e3f 6cf5 14be
000000a0: 31f2 103f 68e9 5c3f 79be 2bbf 2527 943e
000000b0: a770 bb3e 6ebf 42c0 f18b bb3e 3bed 82bf
000000c0: 76e9 b5be b182 73bf 8a0d da3e 163d 90bf
000000d0: d12b 89be e2e9 93be 7748 fa3d 9b1c 5f3e
000000e0: 8058 11be 50be 1a3f 8e55 3a3f b2e9 93be
000000f0: be68 583f 157a ae3e 7f7d 48bf f95b 3e3e
00000100: 3b0c 253f 4adc 5b3f 6fd2 16be 06bb babe
00000110: b96e d83c 362c e2be 8901 223f 2e2f 363e
00000120: a3ce 0cbe 695b 2cbe 5c8b 37bf 08e9 9c3e
00000130: 37c3 17be 0528 1a3f e615 0e3f f564 babe
00000140: 2754 b0bd c104 a03d 17ea 393e c4c3 ecbd
00000150: b155 4fbf b5b9 14bf f625 303e edd2 0b3f
00000160: 92c7 7fbe a738 223f 0bdb 5c3e 083c 1c3e
00000170: 39a1 3d3e 2967 323f dd2f 343f 81aa 0bbf
00000180: 96c5 7e3e 556d 1cbe 8d9b 39bf 04fa 1d3e
00000190: e46c 9abe 4a90 5dbe bd3a 303f a8fb f53e
000001a0: 3347 6fbd 4d60 2dbe fe9c 373f bb51 113f
000001b0: fd30 ec3e 3934 aa3f a749 92bd 22f9 3a3f
000001c0: d967 443f 4c85 643f 1cb0 a13e ead0 5bbe
000001d0: 35a9 7d3f d722 58bf edbb cdbe 5bcf 083f
000001e0: 12ab 16bf 89d7 b9be d3b4 c83e e2ec 003f
000001f0: b7b8 b5be 4c7a 0cbd 799d d63e 8a93 1c3f
00000200: 55be 233f 8ee5 023f 1545 54be 759f a93f
00000210: 8058 2d3f a537 323f 70f7 a93e b143 223e
00000220: 9c69 1e3f 3e9d 03bf f6d1 35bf d20c 623f
00000230: 7007 ddbe 516a e4bd 0584 663f 46f2 963e
00000240: c6be e5be 9966 0bbf d433 123f 85db 493f
00000250: 03df 113f 7ae7 983e 6bd6 9ebe dc2a 823f
00000260: 3344 313f c239 473f d5f4 ea3e de42 1c3e
00000270: f466 123f 9472 2bbf b080 43bf 61e1 213f
0.71313864 0.17661774 -0.049440783 0.45734033 -0.5102209 -0.43434027 -0.9626388 0.38573956
-0.9823962 -1.4339905 0.40414706 -0.5144119 0.23704255 -0.78745633 -0.38219348 -0.3862019
-0.75041205 0.49111652 0.19680418 -0.53188604 -0.12693869 -0.17405176 -0.2011475 -0.22650543
1.1335682 1.7533575 -0.78224665 -0.1284723 0.19048518 1.1564579 0.853594 0.7190622
0.03581638 0.40587938 -0.41997343 0.82731473 -0.021849956 0.6431003 0.8071974 -0.14546746
0.56619555 0.8629365 -0.67087513 0.28936115 0.36609384 -3.042934 0.36630204 -1.0228647
-0.3552968 -0.95121294 0.42588454 -1.1268642 -0.26791242 -0.28889376 0.12220853 0.21788256
-0.14193916 0.60446644 0.72786796 -0.28889233 0.84534824 0.34077516 -0.7831649 0.18589772
0.6447179 0.8588301 -0.14728712 -0.36470813 0.026419984 -0.44174355 0.6328359 0.17791435
-0.137507 -0.16831745 -0.7169702 0.3064654 -0.14820562 0.60217315 0.55502164 -0.3640515
-0.08609801 0.07813407 0.18155704 -0.11560777 -0.8099013 -0.58095866 0.17201981 0.5461872
-0.24978474 0.63367695 0.21567933 0.15257275 0.18518533 0.6968866 0.70385534 -0.54557043
0.2488006 -0.15276082 -0.72502977 0.15427405 -0.30161202 -0.21637073 0.6883963 0.4804356
-0.05841751 -0.16931267 0.71723926 0.56765336 0.46131125 1.3297187 -0.07142954 0.73036397
0.7672096 0.89265895 0.31579673 -0.21466413 0.99086314 -0.8442816 -0.40182438 0.534414
-0.5885478 -0.36297253 0.39200458 0.50361454 -0.3549249 -0.03429632 0.41917017 0.61162627
0.639623 0.5113152 -0.20729478 1.3251787 0.67713165 0.69616157 0.33196592 0.15846135
0.618799 -0.5141181 -0.710235 0.8830081 -0.43169737 -0.11153091 0.90045196 0.29481715
-0.4487211 -0.54453427 0.57110333 0.78850585 0.56980914 0.29864103 -0.31022963 1.016933
0.6924469 0.77822506 0.45889917 0.15259883 0.57188344 -0.6697171 -0.76368237 0.63234526

bias f4 [8]
00000000: 0166 1b3d eb7c 113e 2965 e73e e797 e33d
00000010: 4c40 26bd 7601 483e b2b8 5a3e d6a7 8c3e
0.037939075 0.14207809 0.45194367 0.111129574 -0.040588662 0.19531807 0.21359518 0.274718

weight f4 [4, 8]
00000000: 121f 03bf 11c6 b23f 8dd5 d4be 1e31 253e
00000010: c5b7 fbbd 9f97 9d3f 137c 913e f267 c13e
00000020: 32dc 0bbe 21ff acbe 7003 91bd 402d 93be
00000030: 327b 2cbe 13d2 88be 5bf5 8cbe 8021 26bd
00000040: 0006 54bd d397 a4be 981d 4cbd c092 63bd
00000050: ec57 3cbe cc54 8bbe a63a 3dbe 28a4 babd
00000060: c462 86bf 2ebf 89bf 63ab a1bf d7a6 e9bf
00000070: 3744 ce3f eca5 bb3f 0751 b03f 9a09 a53f
-0.51219285 1.3966695 -0.41569176 0.16132018 -0.12290911 1.2311896 0.28414974 0.37774616
-0.13658217 -0.33788398 -0.07080734 -0.2874546 -0.1684387 -0.26722774 -0.2753094 -0.04055929
-0.051763535 -0.32147083 -0.04983291 -0.055559874 -0.18392915 -0.27213132 -0.18479404 -0.091133416
-1.0498891 -1.0761468 -1.2630428 -1.825404 1.6114568 1.466001 1.3774728 1.2893555

bias f4 [4]
00000000: b7fc 06be d91f 94be 8a16 4cbe edcf 9c3e
-0.1318234 -0.28930548 -0.19930473 0.30627385

weight f4 [1, 4]
00000000: 792c 2940 1c1d 20be ca85 9f3e 0d55 37c0
2.6433394 -0.15636104 0.3115676 -2.864566
