latest version/heart attack model/net/3hiddenlayerwithL2norm.pt (torch, 5551 bytes, 7 tensors)

weight f4 [20, 13]
00000000: f507 f4bd 78e6 28be 4eea 1c3f 7a96 513d
00000010: 31a8 743e 6d3d 78be f252 b93c 7752 3b3d
00000020: fc4d 87be 6690 a0be 3259 023f c8a0 80bf
00000030: 44bb 93be 5959 a93e 15a2 d7bb ee2b 62be
00000040: ec3f 9abe 637f 153f 0523 753e 752d d3bd
00000050: 5aee c43d c22c 54bd c54b 0b3e a90a f5bd
00000060: d9b2 f6be 8c76 1c3e 6054 db3e 02be 34bc
00000070: af25 23bf 7892 abbe 9d9b d8bd e19d 103e
00000080: f2e6 1ebf f096 a83e 99fa d8bd 7d39 42be
00000090: b49a 7bbd 11e7 863e 923e aabe 1a83 04bf
000000a0: 961b b6be 392f 0d3f dde1 163e 7278 bd3e
000000b0: acde a4be 2977 a8be 3dd5 a83e 81cc 90b9
000000c0: 5b02 223d 3b3a f9be 6ecf 1a3f c919 9d3d
000000d0: 9ab2 0bbf 7499 48bf 023f 743e 0e5a bf3e
000000e0: 08f3 57be af38 313e 169d 273e 8e6e cabe
000000f0: 0709 9dbe b9f6 233e bcf4 093c 68e0 c43e
00000100: 5103 1abf 393b 5fbd 15a2 963e 1177 8d3e
00000110: 88f1 38bf 2173 b2be aa57 a93d ec79 fa3e
00000120: e93c d1bd 8f8f 50bc 9a70 a83e 9fa4 5ebe
00000130: d9ef 673e c9be f8be 4dde 31bf e930 16bd
00000140: 0ade 7f3e a624 19be b285 9dbe 7cbf 8c3e
00000150: a25e 283d 13fc 7c3e b05b 9e3d 316c cabd
00000160: 8460 9f3e d620 31bf bd0d 853e 009e 263d
00000170: efa5 87be 707b 04bf 6f14 743e 647b afbe
00000180: 0be4 923e 8fb9 4bbd 62a5 a13e 1413 433e
00000190: 96b0 31be c699 0ebf 6cb5 4e3e 9096 f83e
000001a0: 71ea 8dbe 8ab8 173f af85 593e d05e 7a3e
000001b0: dd9e 13bf 1d5d 0cbf 4165 40be 0451 233e
000001c0: d1fc 16bf 6641 c5bd e601 b53e 02ce 9fbe
000001d0: 8322 ed3e 91ad a83e 5c81 43bd bf2b a93d
000001e0: faf6 903c 12bc 03bf 3bba e73e 1ca9 af3d
000001f0: e9cd 3f3e 9806 553e 9dac 62bd 2ec0 f93e
00000200: 401c ddbe fdb5 043f cd16 343e 6c04 3b3d
00000210: de81 7b3e c1a4 053e ae97 25be 6aa9 00be
00000220: f938 81be f784 1a3f 1764 003f f8dd 653d
00000230: 413b cc3e 11b5 813e 1613 d03d 13f1 58bf
00000240: 18eb 09be 1897 c83d c7d2 e8be 79e7 e33d
00000250: c555 f6be a496 a03d 21ea 6e3d b6a9 b9bd
00000260: a614 663d c34b af3d fd46 b4bd 88f6 c63e
00000270: b8e5 4dbd 74d3 d63e d393 b83d 6501 e6be
00000280: 3fa2 a1be 2af9 8b3e 6fdb 7abe 9e06 273e
00000290: 49fa bfbe 9c3a 6d3e a306 54bc 27be 3bbf
000002a0: c726 79be 54c7 edbd edab 703e 5cf1 05bf
000002b0: 038f 5c3c 6474 823e 1c47 53be 12e5 8c3e
000002c0: 1902 67bf 3076 f43e 4ace 0a3f 8bf7 94be
000002d0: d25e 0abd 2953 003f a60b 4c3e 3802 1bbf
000002e0: b10f dbbe f3f5 303d 4012 2abe 733f e7be
000002f0: f93e 963e cbd9 08bf 2f64 80bd 143b 7b3e
00000300: 6982 3d3e 2060 b5be 2d8f 00be 2ffa f4be
00000310: 41ec 84be 22f9 09be 0dcb 773e 7a53 bd3e
00000320: ed67 f03d 179b 8e3e c8f5 77be c806 063e
00000330: 8539 763e ebe3 89be 4da3 dc3c 5a2a 453e
00000340: 31fd 8fbe 2e72 51bd 2e59 c1bd 73ad cf3e
00000350: 6d3d 1ebe ed98 cb3e 05ef b73e 4698 cf3e
00000360: b6be 77be 1441 1b3e 6018 4e3e 3c10 42be
00000370: 406d aa3e 72d5 51bf 8104 113e b527 22be
00000380: 1b0f 953e d430 9bbe 9af8 adbc 1165 923d
00000390: b502 e63e 1701 b63e 637d c7bd 5994 013f
000003a0: 5956 61bd 4320 3cbe 2363 8ebe 45c9 943e
000003b0: bcf5 18bf e08d 1cbd bac3 4c3c 8422 5cbe
000003c0: e3b9 8abc 02db a3be 2047 ffbb b4d1 8b3e
000003d0: 8781 1abd be54 833e 55e9 053f d947 60bd
000003e0: 93b5 023e 4943 e3be eb79 b43e 5263 38be
000003f0: 8d94 4d3d 2cce 373e 19e2 c63e 1c8d 903e
-0.1191558 -0.16494167 0.6129502 0.051168896 0.23892285 -0.24242182 0.02262256 0.04573294
-0.26426685 -0.31360167 0.5091735 -1.0049067 -0.2885381 0.3307598 -0.006580601 -0.2208707
-0.30126894 0.583975 0.2393914 -0.103114046 0.096157745 -0.051800497 0.13603123 -0.11964924
-0.48183325 0.15279597 0.4283781 -0.0110316295 -0.63729376 -0.33510184 -0.10576556 0.14122726
-0.62071145 0.32927656 -0.10594673 -0.18967243 -0.061426833 0.26348165 -0.33250862 -0.51762545
-0.3556792 0.5515018 0.14734598 0.37005955 -0.32201135 -0.32903412 0.32975188 -0.00027618188
0.039553028 -0.4867724 0.6047276 0.07670934 -0.545694 -0.7835915 0.2385216 0.37373394
-0.21088803 0.1730678 0.16368517 -0.39537472 -0.3067095 0.16012086 0.008420166 0.38452458
-0.6016131 -0.05449984 0.29420534 0.27629903 -0.7224355 -0.3485346 0.08268674 0.48921144
-0.10216696 -0.01272954 0.32898408 -0.21742485 0.22650088 -0.48583058 -0.6947983 -0.036667738
0.24987045 -0.14955387 -0.30766064 0.2748984 0.041105874 0.24705534 0.07732332 -0.09883917
0.31128323 -0.6919073 0.25987044 0.040678024 -0.26493785 -0.5175085 0.2383592 -0.34273827
0.28689608 -0.04973751 0.3157149 0.19050246 -0.17352518 -0.5570339 0.20186394 0.4855237
-0.27717927 0.5926596 0.21242402 0.2445023 -0.5766428 -0.5482958 -0.18788625 0.15948874
-0.5897952 -0.096316144 0.3535301 -0.3121186 0.46315393 0.3294492 -0.04773079 0.08260297
0.017695893 -0.5145885 0.4525927 0.08577177 0.18730892 0.20803297 -0.055340398 0.48779434
-0.43185616 0.5184019 0.17586823 0.045658514 0.24561259 0.1305113 -0.16171142 -0.12564626
-0.2523878 0.6035914 0.50152725 0.05611989 0.39888957 0.25333455 0.1015989 -0.8474285
-0.13468587 0.09794444 -0.4547331 0.11128134 -0.48112312 0.078412324 0.05832875 -0.09065573
0.056172036 0.08559372 -0.088026024 0.38859963 -0.050267905 0.419582 0.0901257 -0.4492294
-0.31569096 0.27338535 -0.2449777 0.16311118 -0.3749564 0.23166889 -0.012941035 -0.73337024
-0.24331199 -0.116102844 0.23503084 -0.5232141 0.013461831 0.25479424 -0.20632595 0.27518517
-0.90237576 0.4774642 0.5422102 -0.2909511 -0.033781834 0.5012689 0.19926319 -0.6055026
-0.4278541 0.043203305 -0.16608524 -0.45165595 0.2934492 -0.53457326 -0.062691085 0.24534255
0.18506779 -0.354249 -0.12554617 -0.47847125 -0.25961497 -0.13473943 0.24198551 0.3697775
0.11738572 0.278527 -0.24214852 0.13088524 0.2404538 -0.269317 0.026933337 0.19254437
-0.28122857 -0.05113428 -0.09440838 0.4056202 -0.1545312 0.3976511 0.35924545 0.40545863
-0.24193844 0.15161544 0.20126486 -0.18951505 0.33286476 -0.81966317 0.14161874 -0.1583546
0.29113087 -0.3031069 -0.021236707 0.07148183 0.4492394 0.35547706 -0.097407125 0.50616986
-0.05501399 -0.18371682 -0.2781001 0.29059806 -0.5974996 -0.03822124 0.012497837 -0.21497542
-0.01693434 -0.32003027 -0.007790461 0.27308428 -0.037721183 0.2565059 0.5230916 -0.05475602
0.12764578 -0.44387272 0.35249266 -0.18006638 0.050190497 0.17949742 0.38844374 0.28232658

bias f4 [20]
00000000: ca74 b2bd 16b3 fb3d 8e92 643e 7ebf 673d
00000010: a092 bc3d 9a5b 363e 732a b83e 0cc5 e23d
00000020: 3940 6f3e 0e4a f7bd cb70 723e 661e 723d
00000030: ddca 763e 38b2 45be b379 c83e ce40 243e
00000040: b3bf 6a3d 49f0 c53e 1b8a 3b3d 5f2b e0bc
-0.08713682 0.12290017 0.22321531 0.056579106 0.09207654 0.1780838 0.35969886 0.1107274
0.23364343 -0.12074672 0.2367584 0.05911102 0.24100824 -0.19306266 0.3915535 0.16040346
0.057311725 0.38659886 0.045786005 -0.027364431

weight f4 [8, 20]
00000000: 027f 063f e2bb ee3e 6a23 e33e aaa2 f3be
00000010: 4785 ab3e 34a9 b5be f810 2bbf 69ac e23e
00000020: 731c 3abf 47ef 7dbe ead4 b13e 06b8 3fbe
00000030: 3dd7 0cbf 993e 483f abd6 7d3e 71c4 473e
00000040: 57a9 5abe 6371 17bf 5040 013e b997 f73e
00000050: a634 37bf b0a8 ccbe 1f56 f83e 99fa 42be
00000060: dd01 a53e 996d 043e 87e4 c9bd ada6 b33e
00000070: 2c5f fa3e 7565 d2be 9f5e 463e b177 893e
00000080: c74d 3cbe 6da2 973e 1017 f3be 3d43 863e
00000090: de72 123d ebaa 7bbe 9946 ba3e 9e0b e83e
000000a0: 76c7 36bd aee8 3d3e 24fb 113e b988 343f
000000b0: 2f33 943f cd6d d3be 5b91 953e 514a f7be
000000c0: 6f6b b23e 4c4c 073f fd32 613f 5f12 3a3f
000000d0: 20dd 203f fd7f 96bf b6da e93e b823 10be
000000e0: 6d99 333e 9178 2f3f e87e aabe 7305 32bf
000000f0: 4e13 b93e 71c2 64be af9f 573e 23bb 85bf
00000100: a846 e33e 77bc ff3e e571 1a3e 58be d13d
00000110: 00bc e73e 7193 21bf 62fb d43d 61b4 fc3e
00000120: f8f6 553e 17c8 a63e d5d9 7fbf e1f2 c03e
00000130: 3989 47bf dcfa fe3c 462e 573e 5cfd fe3e
00000140: 1955 30bf e6a2 b7be 4db2 c13e db4a f23d
00000150: a8d8 d4bd 0bd6 f53e 2067 a5be 6a12 2a3f
00000160: 1c0e e53e 4955 debd 7150 5fbe 1018 fe3c
00000170: f22b 79be c5ce 1f3f 7295 81be a8ee 043f
00000180: e0fe 363e a9e9 8c3b f442 133f 424e 1d3f
00000190: e8eb 28bf 88d5 e1be f974 e73e f060 33bd
000001a0: c24f 9d3e 19cb 8d3d cb6a 9bbe 3513 863e
000001b0: 9dcc be3e a9e1 3fbe 5756 213e 2ec7 c43e
000001c0: 559f e8bb b765 db3d bbf0 d3be baf4 1e3e
000001d0: 7032 a93d d854 fbbd 02a1 853e 51c2 b03e
000001e0: f33c a0be 6662 bf3e 533c 24be 2a30 2d3f
000001f0: b54c 1b3f 5877 aebe ae4e 0a3f d758 d8be
00000200: 7a10 eebd 457b 283f 3d51 013f 1748 293e
00000210: 22c7 263f bb00 41bf a404 d33e aa3b 123d
00000220: b103 303e 402b ef3e 9fcc d2be 78ac 14bf
00000230: c42a 88be 47e4 a03e b5e4 49be 9343 1f3f
00000240: de8b 3a3f 0b18 8cbe 44b6 043f b1f8 11bf
00000250: 7342 dbbd 12db 0a3f cc9d ac3e fa12 bc3e
00000260: 792f 013f 757a 12bf ddb7 fe3e 13f3 b13d
00000270: 92e3 ac3e 3b37 103f 4aca debe 6e5a 14bf
0.5253755 0.46627718 0.44362956 -0.4758504 0.3350012 -0.35480654 -0.6682277 0.44272164
-0.7269966 -0.24798308 0.34732753 -0.18722543 -0.5501593 0.78220516 0.2478892 0.1950853
-0.2135366 -0.5915739 0.1262219 0.48357943 -0.7156471 -0.39972448 0.48503205 -0.19040908
0.32227984 0.12932433 -0.09858041 0.350881 0.48900735 -0.4109303 0.19372033 0.2684913
-0.18389045 0.2961611 -0.47478533 0.26223174 0.035754077 -0.24576919 0.36381987 0.45321363
-0.044623815 0.18545792 0.14255959 0.7052112 1.157812 -0.4129471 0.2921246 -0.48298886
0.3484759 0.52850795 0.87968427 0.7268428 0.6283741 -1.1757809 0.45674676 -0.14076126
0.17538996 0.68543345 -0.33299947 -0.69539565 0.3614754 -0.22339799 0.21057008 -1.0447735
0.44389844 0.49948475 0.1508251 0.10241383 0.4526062 -0.631156 0.1039951 0.49356368
0.20894992 0.3257453 -0.9994176 0.37685302 -0.7794376 0.031125478 0.21013746 0.49802673
-0.6887985 -0.3586647 0.37831345 0.11830684 -0.103928864 0.48014864 -0.3230524 0.6643435
0.44737327 -0.108561106 -0.2180803 0.031017333 -0.2433317 0.6242488 -0.2530933 0.5192666
0.17870665 0.0043003154 0.5752404 0.61447537 -0.65984964 -0.44108224 0.4520643 -0.04379362
0.30724913 0.069235034 -0.30354914 0.2618653 0.37265483 -0.18738426 0.15755592 0.38433212
-0.007099072 0.1071276 -0.413946 0.15523043 0.08261573 -0.12272042 0.26099402 0.34523252
-0.312965 0.3737976 -0.16038637 0.6765162 0.6066392 -0.34075427 0.54026306 -0.4225528
-0.116242364 0.65813094 0.50514585 0.16531406 0.651476 -0.7539174 0.41214478 0.03570143
0.17188908 0.46712685 -0.41171739 -0.58075666 -0.26595128 0.31424162 -0.19716151 0.62212485
0.7286967 -0.27362093 0.51840615 -0.570201 -0.107060336 0.54240525 0.3371414 0.36733228
0.5046306 -0.57218105 0.49749652 0.08688941 0.33767372 0.56334275 -0.4351371 -0.57950485

bias f4 [8]
00000000: d0cc 08be 50fb 893e 4ea8 5b3e d372 4bbe
00000010: 9620 d63e ae9a 233e 440f 723e 64b4 0b3e
-0.1335938 0.2694955 0.21450922 -0.1986802 0.41821736 0.15976974 0.23638636 0.13643032

weight f4 [4, 8]
00000000: 64c4 26be 5a90 94bf b635 6b3f 0e59 85bf
00000010: 56b0 97bf 3d2e 65bf 19ef 5c3f 0558 8c3f
00000020: c010 72a8 37ff 6caa 6f97 b7aa 63b3 59ab
00000030: 4a92 60aa 6786 5faa ed82 aeaa eacd aeaa
00000040: 5506 08be 5ae0 88bf 0f3f 373f a2bc 69bf
00000050: 36f8 91bf 04aa 36bf fa96 8c3f f758 4e3f
00000060: 33b4 1a40 5c20 863e 5912 bb3f 382b b83f
00000070: 7a26 82be 3475 863e c4e6 073f 9019 883e
-0.16285855 -1.1606553 0.9187883 -1.0417802 -1.1850688 -0.8952368 0.86302334 1.0964361
-1.3437331e-14 -2.1049556e-13 -3.2612408e-13 -7.7342836e-13 -1.9945951e-13 -1.9853009e-13 -3.0999457e-13 -3.105149e-13
-0.13283665 -1.0693467 0.71580595 -0.91303456 -1.1403873 -0.71353173 1.0983574 0.806045
2.4172485 0.26196563 1.4614974 1.4388189 -0.2541998 0.26261294 0.53086495 0.26582003

bias f4 [4]
00000000: 9fda ea3d 16a8 b3a8 e136 243e e653 3fbe
0.1146748 -1.9945888e-14 0.1603656 -0.18684348

weight f4 [1, 4]
00000000: 970f 0140 3b45 90aa 6711 0240 79f2 debf
2.0165765 -2.5627577e-13 2.0323122 -1.7417747
