latest version/heart attack model/net/3hiddenlayerwithdropout.pt (torch, 5743 bytes, 7 tensors)

weight f4 [20, 13]
000000 58 5b bb 3c 7e c2 a8 3d 6f a4 d3 be 50 b6 d8 3e
       0.022870705 0.082402214 -0.4133639 0.42326593
000010 d9 ca d1 3c cd 35 c3 be 58 22 24 3e 81 b2 89 be
       0.02560942 -0.38126984 0.16028726 -0.26894
000020 ed 4a b6 3e 93 1f 2e 3e 00 f3 b2 be 38 9a ce 3e
       0.3560404 0.17004232 -0.3495102 0.40352035
000030 cc 77 30 3f 53 16 07 bf 9b 57 52 3e a8 36 2f 3f
       0.68932796 -0.5276844 0.20541231 0.68442774
000040 ae 80 4e 3d 6a b8 17 bf cd b3 2d bf 5f db 92 3e
       0.050415687 -0.5926577 -0.6785248 0.28682992
000050 bc 0a ea be 3a a4 44 be 02 41 27 bf 99 ef 0d 3e
       -0.45711315 -0.19203272 -0.6533357 0.1386093
000060 93 da 87 be 19 ec 17 bf 6d 13 be bd b1 94 d7 be
       -0.26533946 -0.5934463 -0.09281049 -0.4210563
000070 06 16 83 3e 88 71 a9 be 34 b9 13 3e 22 50 b9 ba
       0.2560274 -0.3309443 0.14426118 -0.0014138261
000080 26 c7 25 bf 20 84 9b be 69 f3 f3 3d 1d 59 9c 3e
       -0.64757 -0.3037424 0.11911661 0.30536738
000090 f9 d0 e8 be 26 b9 05 bf a2 f7 27 be bd 43 7c 3e
       -0.45471933 -0.5223564 -0.16403058 0.24635215
0000a0 1f 23 d6 3e c4 ca 6f be ff 89 49 3c f3 95 ee be
       0.4182367 -0.23417193 0.012300967 -0.46598777
0000b0 22 20 e9 be 59 c7 6c bd 18 5c 88 bd cc a2 03 3f
       -0.45532328 -0.0578073 -0.066581905 0.51420283
0000c0 18 ec 09 bf 29 6a c9 3d bf 26 16 bf c4 0e cf bd
       -0.53875875 0.098347016 -0.5865287 -0.10110238
0000d0 f7 18 ba be de dc 06 3f d1 9a 0d 3e e6 a0 d8 3e
       -0.36347172 0.52680767 0.13828589 0.42310256
0000e0 9b 36 f2 3e a4 2c 85 3e 30 73 ce 3d 21 d6 9f be
       0.47307286 0.2601062 0.10080564 -0.31218055
0000f0 27 e8 59 3e 4a ba 83 3e f3 d4 0f be 5d 95 8f bd
       0.21279965 0.25728065 -0.14046077 -0.07010911
000100 a6 aa 92 be 7b ad c4 3c 82 a9 20 bc 39 d8 e7 3c
       -0.2864582 0.024008503 -0.009806039 0.028301345
000110 06 eb ea 3e 9b af c2 be fa bc 2d 3c 00 d1 96 bd
       0.45882434 -0.380246 0.010604138 -0.07364082
000120 67 e6 b5 be 25 9d 22 3e 70 52 51 3e 7d 26 a3 bc
       -0.35527346 0.15880258 0.20441604 -0.019915814
000130 5e c9 12 bf 0a ac 7e be 7c 8f 07 bf eb c0 1f bf
       -0.5733851 -0.24870315 -0.52953315 -0.62403744
000140 52 c4 b7 be 99 8a 00 bf 3b a7 e9 3d 54 be cc 3d
       -0.35891968 -0.50211483 0.1140885 0.0999724
000150 cf 6e 67 be f4 fc 50 bd 92 9d 0d 3e bb d4 09 3e
       -0.22600864 -0.051022485 0.1382964 0.13460056
000160 24 68 60 be 7d 9b bf 3d e8 38 36 3f d1 6b cb 3d
       -0.21914726 0.09355829 0.7118058 0.09932674
000170 9b a8 d0 bd 9a bb a9 be 13 8c a9 3c b2 fc 0c bf
       -0.10188409 -0.3315094 0.020696675 -0.5507308
000180 dc ac 35 3e 8a 9a 6e be 29 2c a3 3e 94 88 71 3e
       0.17741722 -0.2330114 0.3186963 0.23587257
000190 24 f1 22 be ca 2e 90 be 34 95 e5 3e e4 25 fb 3d
       -0.159123 -0.28160697 0.44840395 0.122630864
0001a0 40 ee 89 be 38 72 26 be 6c b4 77 3e 39 02 3a 3e
       -0.26939583 -0.16254508 0.24189919 0.1816491
0001b0 60 da 70 be fb fa c8 3c e1 54 9d 3e 0e 25 35 be
       -0.23520803 0.02453374 0.3072882 -0.17689916
0001c0 1e 2b 3b 3e 80 23 c1 3e 31 91 ef 3d 7e f1 f1 be
       0.18278167 0.37722397 0.11697615 -0.47254556
0001d0 6b be 42 be 29 1e 94 bd 61 da ac be 92 c5 a6 be
       -0.19017951 -0.07232315 -0.3376036 -0.3257261
0001e0 c9 78 b1 3e c5 f1 65 be c4 b2 b1 3e 42 a6 53 be
       0.34662464 -0.22455509 0.347067 -0.20668891
0001f0 d1 5c c5 3e d4 99 36 3f 0f f4 2a 3e 64 da a4 be
       0.38547376 0.71328473 0.16694663 -0.3219787
000200 52 3f a9 3e 3c 5d 0c be 82 d9 c3 be cc 45 12 3f
       0.33056122 -0.13707441 -0.38251883 0.5713775
000210 17 c1 a6 3e 55 7e 7a bc 24 ef cb 3c ad 4c f2 be
       0.3256919 -0.015288909 0.024894305 -0.47324124
000220 5c dc f0 bc 56 a0 9a be e0 01 98 be c7 3e 3f 3e
       -0.02940195 -0.30200452 -0.2968893 0.18676291
000230 da 74 17 3e 20 bd 0b 3d 8a 0b 54 3d ba ef 14 bf
       0.14790669 0.03411591 0.051768817 -0.58178294
000240 8e a9 33 bd 00 78 ce bd c6 c8 ed 3e 4b aa 92 bd
       -0.04386287 -0.10081482 0.4644224 -0.07161387
000250 12 c8 c0 3e ce 18 d3 3e de 04 17 3f e0 3b 7e 3d
       0.37652642 0.41229862 0.589918 0.06206882
000260 38 0e 94 be c9 46 c5 3d 1c 9b 4f be fc f3 aa be
       -0.28917098 0.09632642 -0.20274013 -0.3338927
000270 74 ba 8a 3e 0e 41 b8 3e 17 10 0b bf 3d d2 ce 3e
       0.27095377 0.35987133 -0.54321426 0.40394774
000280 91 36 3a 3f 64 aa db 3e 7e 77 42 bf 1b 45 c6 3e
       0.7273951 0.42903435 -0.7596358 0.38724598
000290 78 59 12 3e e7 98 be 3d 43 e1 1c be ab 66 b3 3e
       0.14291942 0.093065076 -0.15320306 0.35039267
0002a0 6f d8 b8 3e 33 a0 78 be e5 85 70 be 24 a5 18 3d
       0.36102626 -0.24279861 -0.23488577 0.037266865
0002b0 07 a2 d8 3e 70 e4 02 3b d2 77 b6 3e 85 81 59 3d
       0.42311117 0.0019972585 0.3563829 0.053102035
0002c0 f9 4c b6 3e 2b fc bb 3e 8d 32 db bc f5 42 26 3f
       0.356056 0.36715826 -0.026757503 0.6494592
0002d0 20 12 3c bc 62 d3 a0 3e a5 87 01 3d e6 bc d6 be
       -0.011478931 0.31411272 0.0316235 -0.41940993
0002e0 c1 ee 36 3e 44 23 d6 3c 35 74 8b be dd a1 09 3f
       0.17864515 0.026139863 -0.27237096 0.5376261
0002f0 fc 1e 4b bd 54 9a 39 be 76 78 6f 3e 0d cd a1 bd
       -0.049590096 -0.18125278 0.23385796 -0.079004385
000300 d8 86 30 3f 17 71 0e bd 97 fe 43 3e c6 75 1c be
       0.68955755 -0.03477582 0.19140087 -0.15279302
000310 a5 fc 10 bf a2 38 a8 3e 8d 83 2c bd a9 68 de be
       -0.56635505 0.32855707 -0.042117644 -0.43439224
000320 dc ae 27 3e 81 c6 46 be fa 14 93 be a5 54 d1 be
       0.16375297 -0.1941166 -0.2872694 -0.4088489
000330 8d c3 d5 bd e0 c7 f8 3e f4 a4 2f be ae a4 d8 3e
       -0.10437689 0.48589993 -0.17152768 0.4231314
000340 e1 aa 30 bf 08 c5 12 bf 18 6f aa 3d 32 60 57 3e
       -0.6901074 -0.57331896 0.08321971 0.2103279
000350 bc f9 3d bd 89 61 25 be f4 45 ec 3e 7c 7f 62 be
       -0.046380743 -0.16150488 0.4614712 -0.22118944
000360 c8 4f 03 be a3 df de bd 5f f2 e7 3e dd 12 81 3e
       -0.12823403 -0.10882499 0.45302102 0.25209704
000370 02 b8 29 be e3 69 00 bf 4f 9b 71 3e ec e6 2e 3e
       -0.165741 -0.5016157 0.23594402 0.17080277
000380 53 4c 89 3e 2f 1f 99 3e ed 0b c2 3e f8 c7 fd 3d
       0.26816043 0.29906604 0.37899724 0.12391657
000390 7b d9 dc 3d a7 16 d2 be 52 bc 61 be de 8a dc be
       0.107836686 -0.41032907 -0.22044495 -0.43074697
0003a0 51 38 be 3e af ba 8b 3e 51 b4 05 3e 61 b5 e3 be
       0.3715234 0.27290866 0.13057067 -0.4447432
0003b0 e7 ba d0 bb df 41 d7 bb 4a af cd 3e 04 b2 e2 be
       -0.0063699367 -0.0065691317 0.40172797 -0.4427644
0003c0 79 46 01 bf 3b b0 12 3f 8d 47 42 be 2c c3 db 3e
       -0.5049816 0.57300156 -0.18972607 0.42922342
0003d0 03 63 9b 3d 4e 7b 76 bf 4b 39 d4 be 66 da 63 be
       0.07587244 -0.962819 -0.4144996 -0.22251281
0003e0 75 7d d2 be c4 d9 23 bf 7f 45 34 3e 4b 7e 03 bf
       -0.4111134 -0.6400416 0.17604636 -0.5136458
0003f0 7c 3c 97 bc 8d fa 89 bd 5a 2f a6 be f9 0e 90 3e
       -0.018461458 -0.06737242 -0.32458 0.28136423

bias f4 [20]
000000 c3 f5 b0 3e b6 fe f7 3e c7 c1 0a bf 7a 43 20 bd
       0.345625 0.48436517 -0.5420193 -0.03912685
000010 9e f7 b7 be ec 0d dd 3e bc d0 6b bc 3d 59 19 3e
       -0.35931104 0.43174684 -0.014393028 0.14975448
000020 31 ec d1 3e b0 c4 2a 3e 59 67 9c 3e 22 06 98 be
       0.41000512 0.16676593 0.30547598 -0.2969218
000030 ab 09 a1 be 2a ff c0 3e 8e fd 5e be 98 a8 01 3f
       -0.3145269 0.37694675 -0.21776411 0.5064788
000040 69 4e 53 be 1f a6 02 3c e1 a7 1b 3c 0c bb 48 3e
       -0.2063538 0.007974177 0.009500475 0.19602603

weight f4 [8, 20]
000000 a8 5f ee be a0 80 a7 bd d8 95 48 3f 24 e2 ca 3e
       -0.46557355 -0.0817883 0.78353643 0.39625657
000010 ef a8 2b be d8 74 a4 3e b3 48 97 3e 4c 87 54 bf
       -0.16763662 0.32120395 0.29547653 -0.83018947
000020 1e 90 e6 3e bb f9 fb 3c 02 5d 22 bf 84 8a 31 3f
       0.45031828 0.03075873 -0.6342317 0.69351983
000030 80 f4 ad 3d 42 79 d9 3b e3 02 26 3f 92 37 2b 3e
       0.084939 0.0066367695 0.64848155 0.16720417
000040 7b f3 02 3f 01 36 f7 3e bb 36 0f be b3 f1 28 be
       0.5115277 0.4828339 -0.13985722 -0.16498451
000050 a2 73 42 bc c8 28 0a 3f 45 a4 28 bf f7 ca 0b be
       -0.011868389 0.5396848 -0.65875655 -0.13651644
000060 df 75 04 3f 6a 0b d0 bd b8 9d 47 3f d5 a2 81 3e
       0.51742357 -0.10158427 0.77975035 0.25319543
000070 70 35 d4 bd 49 d5 31 3f 4d d6 61 3e a3 7a 13 3d
       -0.10361755 0.6946607 0.22054406 0.036005627
000080 65 91 7f 3f c5 c5 f7 3d 9f c6 e7 be e1 e6 ba 3e
       0.9983123 0.120982684 -0.45268723 0.36504272
000090 86 33 76 be d4 42 ac be b1 f7 81 bf b7 6d 35 3f
       -0.24043092 -0.33644736 -1.0153714 0.70870537
0000a0 8e 0b 31 bf 8f 63 cc bc aa e8 85 3e b4 fd eb 3e
       -0.69158256 -0.024949817 0.2615407 0.46091998
0000b0 37 a1 17 bf 9a 84 9c 3e 14 71 99 be 32 8f e7 be
       -0.5923037 0.30569917 -0.29969084 -0.45226437
0000c0 79 be ed 3e 6b e8 43 bf 6a 62 e9 be 5e e2 38 3f
       0.46434382 -0.76526517 -0.45582896 0.7222041
0000d0 8d b7 4d be 37 07 8e 3e 52 ea 50 3f 11 8a ea 3d
       -0.2008955 0.2773988 0.81607544 0.11452115
0000e0 68 dd 92 3e ac 74 07 3f 06 3c 4d bd ae 30 e4 bd
       0.28684545 0.529124 -0.05010607 -0.111420974
0000f0 01 78 90 bf 4f f3 d1 3c c1 48 15 3f 2f ca 6a 3d
       -1.1286622 0.025628714 0.5831414 0.057321724
000100 da 38 c7 be 58 01 de 3e a9 1f 3b be 55 6a df be
       -0.38910562 0.433604 -0.18273796 -0.43635812
000110 48 35 aa 3d c5 86 b6 bd 59 0a bd bd 21 2c 00 3f
       0.08310944 -0.08912424 -0.09230489 0.50067335
000120 be 8b 23 bf 32 d3 36 3f 8c 1e 80 3f d2 3e 2e 3f
       -0.63885105 0.7141601 1.0009322 0.68064606
000130 60 41 02 3f a6 d9 10 3f 0c bb 0e be 3a 59 b2 3e
       0.50881004 0.56582105 -0.1393854 0.348337
000140 fd 87 0b 3e 42 79 58 3f f5 5b 5b bf fa 6d d1 be
       0.13626094 0.84560025 -0.8568719 -0.40904218
000150 f2 c7 1c 3f 80 fc 52 be 4b ed 2a 3f 27 5e 8b 3e
       0.6124259 -0.20604134 0.6676833 0.2722027
000160 1d a5 3e 3e fe 94 6c 3f b2 87 1a 3e 02 66 4f 3d
       0.18617673 0.92414844 0.15090826 0.05063439
000170 87 33 5d 3f 0d 2f 23 3f 51 33 07 bf 26 f0 0b 3f
       0.8640675 0.6374367 -0.5281268 0.5466331
000180 98 b6 20 bd dc 8e 11 bf fd ea ee be bb ce 03 3f
       -0.039236635 -0.5685861 -0.46663657 0.5148732
000190 df c9 3a 3f 3d 6f 05 3f db 89 52 be 82 0f 8f 3f
       0.7296428 0.5212286 -0.205604 1.1176608
0001a0 cc 71 87 3e d6 81 ba 3e 33 77 93 3f f1 0a 93 3e
       0.26454008 0.36427182 1.1520752 0.28719285
0001b0 da fe 56 3e b2 b1 c6 3e 08 3a e2 be fa 0a 47 3f
       0.20995656 0.38807446 -0.441849 0.77751124
0001c0 79 fe 15 3f 5f 0a 96 3e 7f c8 40 3f 37 11 6f 3f
       0.5859142 0.29304788 0.7530593 0.9338564
0001d0 c9 ab 35 3f fc 94 98 3f 92 47 19 be 29 ce 3c 3f
       0.7096525 1.1920466 -0.14968708 0.73752075
0001e0 bf e8 b5 be 11 df 98 3f c9 c3 cb bd ff f1 9e 3e
       -0.35529134 1.1943074 -0.099494524 0.31044003
0001f0 c8 cc f8 3e 0e 08 07 3d a6 b5 a3 3f 85 54 53 be
       0.48593736 0.032966666 1.278981 -0.2063771
000200 3e 63 38 3e 0a 21 d6 3e 90 1a 0b be 59 fe 72 3f
       0.18006608 0.41822082 -0.13584352 0.94919354
000210 65 e2 01 3f 84 7f 4f 3f 7f 23 23 3f e0 9a a3 3f
       0.50736076 0.8105395 0.6372604 1.2781639
000220 8a af 24 3f 8a b0 31 3e fd d7 ee bd ce 7d 5f 3f
       0.6433035 0.173525 -0.1166229 0.8730134
000230 ba 94 55 bf 52 cc 2b 3e f8 4a 2f 3f c0 a5 2e 3f
       -0.83430064 0.16777161 0.6847377 0.68221664
000240 d5 1c 4e bf 85 27 b9 3e b9 26 cb 3e 87 8f 06 bf
       -0.80512744 0.36162964 0.3967798 -0.52562755
000250 62 19 1d 3d eb 0f a5 be b9 0e e6 be 1a 6f 03 3f
       0.038354285 -0.32238707 -0.44933107 0.513414
000260 1f ca 8b 3d 07 e6 0b 3e a0 18 d6 3e 9e a4 ea 3d
       0.06825661 0.13661967 0.41815662 0.114571795
000270 72 ce c2 3e ef 3d e6 3e 55 31 02 be e6 a1 95 3e
       0.3804813 0.44969127 -0.12714131 0.2922508

bias f4 [8]
000000 59 65 1e be c2 aa 95 3d ae c0 1a 3e c4 f9 24 bd
       -0.15468349 0.0730796 0.15112564 -0.040277258
000010 b4 64 53 3d 3b 23 51 3e 41 41 0d bd 08 dc 44 be
       0.05160971 0.20423596 -0.03448606 -0.1922456

weight f4 [4, 8]
000000 a7 98 07 3f 51 40 a3 bf 01 eb db 3f bc e5 f3 3f
       0.52967304 -1.2754003 1.7181093 1.9054484
000010 17 11 39 bf f6 b9 99 3f e3 b9 06 3f bf dc 39 3f
       -0.722917 1.2009876 0.5262739 0.72602457
000020 a7 b3 9f bf 58 6f 59 3f 77 7e b2 bf 11 16 91 bf
       -1.24767 0.8493552 -1.3944844 -1.1334859
000030 a1 4f 8b 3f 30 59 c0 3d bd 21 2c 3f 00 05 88 bf
       1.0883676 0.09392011 0.6723898 -1.0626526
000040 7b 3f e3 bf 23 40 20 3f c3 60 c7 bf d5 86 a8 bf
       -1.7753748 0.62597865 -1.5576404 -1.3166147
000050 8c f8 1d 3f 8d a2 57 3e b9 b7 6a 3f 81 9e aa bf
       0.6170738 0.21058102 0.9168659 -1.3329622
000060 18 7e dd 3e 27 56 9f bf 5d 68 a6 3f 56 77 dc 3f
       0.43260264 -1.2448167 1.3000599 1.7223918
000070 ca 33 64 bf a0 c5 94 3f 09 30 dd 3e a8 7e 32 3f
       -0.89141524 1.162281 0.4320071 0.6972451

bias f4 [4]
000000 c3 53 33 bd a5 35 c4 be 41 8d f5 be fb c5 07 bd
       -0.043781053 -0.38322178 -0.4795933 -0.033147793

weight f4 [1, 4]
000000 ef 52 87 3f 13 0a c7 bf ea c3 0a c0 68 4b 89 3f
       1.0572184 -1.554995 -2.1682076 1.0726137
