latest version/net092.pt (torch, 8111 bytes, 7 tensors)

weight f4 [32, 13]
00000000: dcb1 e03d 1fd8 9cbe 6c34 df3d 196e 0cbe
00000010: 8690 4e3e 3e03 c03e a9d1 883e 3d0c 503e
00000020: 7419 8f3e 8414 8d3e b27b 82be c5cb 0e3e
00000030: 4061 963d 699d 81be d12c 09be 79b8 933e
00000040: 8acb 9b3e 0fad cf3d 450f a93d b2c6 793e
00000050: 615a a63e ada9 a2be 58b0 d33d c260 203e
00000060: dcdc 92be 8e0c 3a3c 1519 f03e 86cd e23e
00000070: c150 203e 21e2 03bd ef5d cb3d c9c9 0cbe
00000080: b716 33be fb03 1c3e 54cb d5bd 8942 cebc
00000090: 84e6 c53e 0cc2 883d 9e42 fcbd a6d4 dcbe
000000a0: 4b20 a6bd bc36 7fbc 0173 4e3e afde 05bf
000000b0: 1127 bc3e 820d 14be 1154 1a3e 5b1a 3e3d
000000c0: 2e20 16bd 73f9 a33e 1f2a 95be 83cd dd3d
000000d0: 2335 753e 94ac f2bd 2e2e 7fbe 188d 0bbe
000000e0: 6830 00be 8c0d e53c 52e9 883c d690 eb3d
000000f0: c250 4c3e 9413 97be cd48 d7be ac07 71bf
00000100: 8baf 36be b1a7 ffbe 0b2c e4be 3b23 9abe
00000110: 841b 0cbe 097c ba3e 698d ccbc b4b1 313e
00000120: 2426 8f3d 3100 33be 0a61 883e 83ca 1d3d
00000130: b20c 36be 3cd3 c63c 1277 f83e 0727 20be
00000140: a514 79be 34ae 343e 8db9 303e 1efe b0bd
00000150: 5c47 083e 5ff6 09bf f65f 37be c372 593d
00000160: 0285 99be e469 0b3f b935 ab3d ddf5 6fbe
00000170: ff3f 4fbd 4ea9 713c 5f79 4fbe 4394 743e
00000180: d528 253e c85b 913e 9083 983e ea87 c7be
00000190: 1f88 90be c278 94be ce30 603e 3a0b 0dbe
000001a0: a309 043e d43b 74be 3f1f 3dbe 350e d8bd
000001b0: 4cf5 0c3e eacb 53be 8268 d63e 4dbd 7c3e
000001c0: 69ae c9be eae2 ddbb f03f f03e ae3f 08be
000001d0: be0b 06be 6f09 6dbe 39bf 94be 293f 1cbd
000001e0: 41e4 2d3a 80ef 603d b344 7fbd 810b df3e
000001f0: bd2c 7cbe a4ee b13e d78a 5c3e 654a 2fbe
00000200: e037 cebd bb3b f13e 4ef2 9abe 7f9a e3be
00000210: fc4d 28bd 7364 1c3e ab72 1fbe e5c4 ba3d
00000220: 80bf 423e 1777 4fbe e95d 95be 0bb4 32be
00000230: a579 d03d bde0 dd3e e76a b6bc f012 0abc
00000240: 3a8f 1b3e 081c 24be 9d92 07bf 3429 273e
00000250: 401f 833d cd99 8cbe 888a d6be a40a 9d3e
00000260: 9ca1 e6be d779 4d3e f18e c9be 5e15 423d
00000270: 6039 a23e ed02 00be a487 1c3e 1a9a 87bb
00000280: 0241 03bf 23eb 6fbd f01c 713e 2d36 793e
00000290: 482e 3bbe 8b3c 1cbd f16f 013d 3f16 b6be
000002a0: cb7e cc3d c0a9 eabe b4bc be3e 890a 40be
000002b0: cf8e bdbb 3bbd 77be 7fb9 5f3e 3c9c aebd
000002c0: f456 363e 4db0 acbd b445 9dbe cc8c 353c
000002d0: 0be3 f3be a796 d3ba 093d 41be 81b7 1abf
000002e0: 60bb dcbe 0f3c 17bd d5d8 2dbe 27be 263e
000002f0: ff4d b0be aa1d fa3d 5f97 ab3c aae2 99be
00000300: 51ec 14be b263 4d3d 0861 203e 9da6 ffbe
00000310: c6d7 8abe 14d1 48bc 7d5f 41bd e1a4 39be
00000320: 25fa d3bc 4c3e 023e 7112 9f3e 9749 663d
00000330: a1b9 15bd 6722 a43e 602c 99be fc59 68be
00000340: 09f5 84bd 43a2 a63e 5e4e d4be af30 bf3e
00000350: 6f28 02be 3ba7 0dbe e091 7bbe 6b61 883c
00000360: 93c5 823d 9e60 debc 0ff7 c0bd f8f9 bf3c
00000370: 79e7 863e 1dc3 133e 8800 91be 55c2 273e
00000380: 0a78 b63e 5f30 983e 5082 c73d a1fb 443b
00000390: db5e 6bba 7109 e43b 8e19 413e 2975 03bf
000003a0: 1c90 6bbe 0487 adbd ee5c ca3d 7c2a 253e
000003b0: 8e7a 4b3e 80b0 11be 3ab7 9ebe f77b fa3d
000003c0: 4be0 71be 9c51 35be 0cab 163f bdf3 58be
000003d0: fe65 253d 0238 e43d a4c1 8c3d 7201 9abd
000003e0: 3b06 67be f2b2 63be 41d5 943e e9ba 603e
000003f0: a19e 32be 079b c1bd 276e 87be 6c6b 7f3e
0.10971424 -0.30633637 0.108986706 -0.13713874 0.20172319 0.37502474 0.26722458 0.20317169
0.27949107 0.27554715 -0.25484997 0.1394492 0.07342768 -0.25315407 -0.13396002 0.2885168
0.30428725 0.1014043 0.082548656 0.24392202 0.3249083 -0.31770077 0.10336369 0.1566191
-0.28684127 0.011355532 0.46894136 0.44297427 0.15655805 -0.032198075 0.09930026 -0.1374885
-0.17489134 0.15235893 -0.104391724 -0.02517821 0.38652432 0.066776365 -0.12317394 -0.43130988
-0.08111628 -0.015577015 0.20161058 -0.52292913 0.36748555 -0.14458278 0.15071131 0.046411853
-0.036651783 0.32026252 -0.29133698 0.10830214 0.23946051 -0.11849323 -0.2491996 -0.13628042
-0.12518466 0.027960561 0.016712818 0.11502235 0.19952682 -0.29507124 -0.4204773 -0.9415233
-0.17840402 -0.49932626 -0.44564852 -0.30105004 -0.13682371 0.36422756 -0.024969773 0.17352945
0.069896966 -0.17480542 0.26636535 0.03852321 -0.1777828 0.024270646 0.48528343 -0.15639888
-0.24324282 0.17644578 0.17258282 -0.08642219 0.13308471 -0.5389156 -0.179077 0.05308796
-0.2998429 0.5445845 0.08359856 -0.23433633 -0.05059814 0.014749838 -0.20261143 0.23884682
0.16128857 0.28390336 0.29787874 -0.38970882 -0.28228852 -0.2899838 0.21893618 -0.13773814
0.12894301 -0.23850948 -0.1846895 -0.10549585 0.13765448 -0.20683256 0.41876608 0.24681588
-0.39390877 -0.006771435 0.4692378 -0.13305542 -0.13090417 -0.2314813 -0.2905214 -0.03814617
0.0006633439 0.054915905 -0.062321376 0.43563464 -0.24626441 0.3475238 0.21537338 -0.17118223
-0.10069251 0.47115883 -0.3026299 -0.4445381 -0.041089997 0.15272693 -0.15571086 0.09119586
0.19018364 -0.20260273 -0.2917321 -0.17451493 0.10179452 0.43335524 -0.022267772 -0.008427367
0.15191355 -0.16026318 -0.5295809 0.16324311 0.06402445 -0.2746109 -0.41902566 0.3067218
-0.45045173 0.2006601 -0.39366868 0.04738366 0.316844 -0.12501116 0.15286118 -0.0041382434
-0.5127107 -0.058573853 0.23546195 0.24337073 -0.18279374 -0.038143676 0.031600896 -0.35563847
0.09985121 -0.45832634 0.37253344 -0.18754019 -0.0057848464 -0.2419328 0.21848105 -0.08525893
0.17806607 -0.08432064 -0.30717242 0.011080932 -0.47634158 -0.001614292 -0.1887094 -0.60436255
-0.43111706 -0.03692251 -0.16977246 0.16283475 -0.34434506 0.12212689 0.020946203 -0.30055743
-0.14543273 0.050143905 0.15662014 -0.49931803 -0.27117747 -0.012256879 -0.047210205 -0.18129303
-0.025876114 0.12719077 0.31068757 0.056222524 -0.036553983 0.32057497 -0.29916668 -0.22690576
-0.06492049 0.3254567 -0.4146604 0.3734183 -0.12710737 -0.13833325 -0.24567366 0.016648015
0.063853405 -0.02714568 -0.09422123 0.023434624 0.26348475 0.14429899 -0.28320718 0.16382726
0.35638458 0.29724404 0.09741652 0.003005721 -0.0008978673 0.0069591333 0.18857405 -0.5135065
-0.23004192 -0.08473018 0.09881006 0.16129488 0.1987097 -0.14227486 -0.30999166 0.12230676
-0.23620717 -0.17706913 0.58854747 -0.21186729 0.04038047 0.11143495 0.068728715 -0.07519807
-0.2256097 -0.22236231 0.2906895 0.219463 -0.17443325 -0.09453397 -0.26451227 0.24943322

bias f4 [32]
00000000: 9845 9fbd b63f 7f3e b001 533d be75 f63d
00000010: 3c71 be3e e567 27be 35ab f73d 2329 5b3e
00000020: 9d55 19bc 87ef 69be 8186 8e3c 1610 5dbe
00000030: c43c 083f 8a92 873e e072 6b3e 7926 353e
00000040: c1d9 dd3e fafa edbe a037 553e a921 c23e
00000050: c331 80bd 50d4 f83d a67c 5f3c f58b 20bc
00000060: d5e8 b43e 972f 863c cac4 493e 2042 68be
00000070: 97e9 27be f7a7 9d3e 1794 0a3e ac3b 12be
-0.07776946 0.24926648 0.05151528 0.12034176 0.37195766 -0.16348226 0.12093202 0.21402411
-0.009358791 -0.22845279 0.01739812 -0.21588168 0.5321772 0.26478988 0.2299304 0.17690457
0.43330196 -0.46480542 0.20822 0.37916306 -0.06259491 0.121498704 0.013640558 -0.009798993
0.35333887 0.016380114 0.19703975 -0.22681475 -0.16397701 0.3079221 0.13533054 -0.14280576

weight f4 [16, 32]
00000000: c0b1 033f aa30 df3e ba85 023f 6c6e c63d
00000010: 9c90 9d3e 9bc8 bcbb 9af6 4dbe 3abf 893b
00000020: 0cd3 1d3e a581 b43e c4cc b5bd 8d15 9ebe
00000030: be5b 2a3f 999e b6bc 70b0 233e a41e a63d
00000040: 1fb4 c53e 10b1 423d dfdc df3b 8edf 81bd
00000050: baf2 803e beb8 873e 0ce4 c0bc 8f12 8cbd
00000060: 9bce 203e ba09 cc3e 983a e23e 97fa 67be
00000070: 9420 023f db0e 9c3d edc4 c13e 10c8 493f
00000080: ef22 2dbe f5a9 743e b2fa 7fbe 7d76 233e
00000090: 061a 9f3e 69aa 6c3e d8b7 dd3d cab6 dd3d
000000a0: e626 b03d c58c 0fbf 62e2 033e 7004 c7bd
000000b0: 88d5 9abc 32ab 1e3e c42e d2be c148 403e
000000c0: dbca 643d 09c0 7d3e 1228 bf3d d276 cdbe
000000d0: 4f46 dabc 9ae6 c03d 2e1b 673e fae8 223f
000000e0: cfa9 d13c ca00 c5bd 5db2 623c 36e0 a6be
000000f0: fb03 f73c ab23 8f3e 8627 d4bd f1e6 f7bd
00000100: 4b4b 013f 648e 293e 705b b43e d00b cabe
00000110: 5ff6 b7be a4ec d9be 17e7 85be cfdc 54be
00000120: a3c1 18be a6d8 cf3e 20f2 f0bc 4e44 b2be
00000130: c82e 9b3e 6a93 73be 77b4 853d 3d3f 1bbf
00000140: 1be3 953e 041a 16be a67a 103b ccf6 783e
00000150: 0072 953e d3f4 ea3e 2c8c 2f3e e8b1 9fbe
00000160: 3c02 d13e 6c76 aabe a13f 3c3e 30f1 cbbd
00000170: 0839 363e 4dc9 7bbe 1e58 ed3e c03d 963e
00000180: 5eee 0e3f 3e12 7c3e f1e1 2c3e 10a6 b03e
00000190: bbc8 1b3e 2b32 b53e 522f c83d 79e6 96bd
000001a0: 0ecd 023e 972a 18bb 8ff0 ea3d f044 8abe
000001b0: ddfb c43e e37d d93e 1655 a8bd 053e fdbc
000001c0: 5538 203e d4a4 ff3e df56 44bc 64db 0d3e
000001d0: 33f8 a93e acd4 ef3e 9494 b93e 6dea 3a3f
000001e0: f67d 883e cddc 353e cabe b53d 1a3a aabe
000001f0: f086 c53d a08a 953e 22fc 4b3e 837e 873e
00000200: 8d2a e2be 06e4 47bf 9420 ea3d 4727 5d3e
00000210: f96a 1dbf 73f7 90be e6f6 a23d b7f7 c7be
00000220: 076c 113e 363f bcbe 29fa 5dbe d9ad 523e
00000230: ec54 c73d d3bf 483e f6a7 363e de2e 1b3d
00000240: 347a b83e 4552 523e 5330 2bbd 51e2 653d
00000250: 8e81 e93e 5040 86bc a132 6b3d 32da cfbd
00000260: 9bf6 ca3d cec8 9f3e c48f a4be 8c91 603e
00000270: 5568 893c dd25 e6be aa11 71be ce43 1d3e
00000280: ac10 863e 06e5 43be 209c 053d 3603 74be
00000290: a68b 73be c372 0abf 8b33 cdbd 727d b5be
000002a0: d212 bfbe 3d55 e03e 84fc 9cbd 0a8f b9be
000002b0: 7b51 943e 73ed 303d b94c b13e 698a 0abe
000002c0: 3f20 403e 2450 88bd f7f1 bbbe fc16 6a3e
000002d0: 8093 db3e 61a5 263e 5391 5b3e a7d2 9fbb
000002e0: 2dff 963e b68c 4a3e 2200 95be f18d 92bd
000002f0: 912c 513e dc55 953c 7bb6 9a3e 8f68 d03e
00000300: 6c5f 95bd 869f 0d3e 6664 5a3d 300c e33e
00000310: 3fc4 19be 2fbf 253e 0d83 d93e eb05 503e
00000320: 3ace be3d 0378 01bf 727f e73e a8be 9fbe
00000330: 4b57 39be 6b7c 5e3e c40c 5abd 99ec 8c3e
00000340: b54a a73d bb63 b63e 82af b83b 5584 cdbd
00000350: 09b7 93bd 2046 a73e 1359 d4bc 6bec 353f
00000360: eb41 113f 1b35 01bd d1a0 3dbd deb0 0abe
00000370: 9602 76be 129e 9f3e b8e8 85bd b186 25be
00000380: 2544 32be 14d8 203e acf2 2abe 3081 353e
00000390: da96 59be df67 4c3e 5f2d d63e 480f 323e
000003a0: 4512 9b3d c6f5 e7be 40a4 393e ff09 26be
000003b0: 2f7d 83bc 5c78 843e 7339 dbbc 40fe 153d
000003c0: 02a3 45be 9aed 843e 7b53 2fbe 63a1 833d
000003d0: 930c 17be f6fa 19be 1c15 e23d 44ae d83e
000003e0: 2d4e 873e 5bda 06be 4504 813c 3786 03bd
000003f0: 04c2 033d f38a de3e 15bc bdbc 25dd 93be
0.514431 0.43591815 0.509853 0.0968903 0.3077439 -0.0057612187 -0.20113602 0.004203704
0.15412539 0.3525516 -0.088769466 -0.30875817 0.6654624 -0.022292422 0.15985274 0.08111313
0.38613984 0.04753214 0.00683175 -0.06341468 0.25185186 0.26508135 -0.023546241 -0.06839477
0.15703814 0.3985117 0.44185328 -0.22654186 0.5083096 0.07620021 0.37845555 0.78820896
-0.16907857 0.23892958 -0.24997976 0.15963168 0.31074542 0.23111881 0.10826081 0.1082588
0.08601169 -0.5607417 0.12879327 -0.09717643 -0.018900648 0.15494993 -0.41051304 0.18777753
0.05585752 0.24780287 0.09333815 -0.40129715 -0.026644854 0.09418984 0.22568962 0.63636744
0.025593666 -0.09619291 0.01383647 -0.32592934 0.030153265 0.279569 -0.10359101 -0.121045955
0.5050551 0.16558224 0.3522601 -0.39462137 -0.35930154 -0.42563355 -0.2615287 -0.20787357
-0.14917617 0.40594977 -0.02941233 -0.34817737 0.3030913 -0.23786703 0.065285616 -0.6064337
0.2927483 -0.14658362 0.002204576 0.24312896 0.29188538 0.4588991 0.17143315 -0.3119042
0.40822017 -0.33293474 0.18383648 -0.09958112 0.17795193 -0.24588509 0.4635629 0.29343987
0.5583247 0.24616334 0.16883065 0.34501696 0.15213291 0.35389838 0.09774651 -0.07368178
0.12773535 -0.0023218745 0.11471664 -0.2700572 0.38473406 0.42478856 -0.08219354 -0.030913362
0.15646489 0.4993044 -0.011983602 0.13853222 0.33197173 0.46841943 0.3624617 0.73013955
0.266586 0.1776001 0.08874281 -0.33247453 0.09644878 0.29207325 0.199204 0.26463708
-0.4417309 -0.7808231 0.11431995 0.21597014 -0.6149135 -0.2831379 0.079572484 -0.3905618
0.14201365 -0.36766976 -0.2167746 0.2057413 0.097329944 0.19604425 0.1783751 0.037886493
0.36030734 0.20539196 -0.041794132 0.056124035 0.45606655 -0.016388088 0.05742133 -0.10149039
0.099103175 0.3120789 -0.32140934 0.21930522 0.016773382 -0.44950762 -0.23541895 0.15357897
0.26184595 -0.19130334 0.032619596 -0.2382935 -0.2378374 -0.5408136 -0.10019597 -0.3544727
-0.37319046 0.43815032 -0.07665351 -0.36241943 0.28968415 0.0431952 0.34628847 -0.13529362
0.18762301 -0.066559106 -0.36708042 0.2286033 0.4288597 0.16274025 0.21442156 -0.0048774066
0.2949156 0.1978024 -0.29101664 -0.071559794 0.20427157 0.018229418 0.30217347 0.40704772
-0.07293591 0.13830385 0.053318404 0.44345236 -0.15016268 0.16186212 0.42482796 0.20314758
0.09316678 -0.5057375 0.4521442 -0.31200147 -0.18099706 0.21727149 -0.05323483 0.2752426
0.08168546 0.35622963 0.0056361565 -0.10035006 -0.072126456 0.3267069 -0.02592138 0.7106387
0.5674121 -0.031544786 -0.046295945 -0.13544032 -0.24024424 0.31175286 -0.06538528 -0.16164662
-0.17408808 0.15707427 -0.16694134 0.17725062 -0.21248952 0.19961499 0.4183149 0.17388642
0.07571844 -0.45304698 0.18129063 -0.1621475 -0.016050903 0.25873077 -0.026760792 0.036619425
-0.19300464 0.25962526 -0.17121689 0.064272664 -0.1475089 -0.1503714 0.110391825 0.42320454
0.2642683 -0.13169234 0.015749106 -0.03211042 0.03216745 0.43465385 -0.023160974 -0.28879657

bias f4 [16]
00000000: 2f7f 9e3e 1717 d63d 7d6b 633e cb09 ca3e
00000010: ef8b 08be 3ba6 473e 3441 99bd 80ff 9b3d
00000020: c709 e5bc 8e30 6f3d 83e7 c0ba ecfd 053e
00000030: fb1e 38bd beae 493e 16e3 3ebb 3346 e53d
0.30956408 0.10453623 0.22208972 0.39460596 -0.1333463 0.19497006 -0.0748314 0.07617092
-0.027958764 0.058395915 -0.0014717433 0.13085145 -0.04495142 0.19695565 -0.0029127053 0.1119503

weight f4 [8, 16]
00000000: 3d5f abbd 6181 a53e 59fa 80be 7355 413e
00000010: 9159 3bbf 7024 1cbf e554 4a3f 73a5 aa3d
00000020: 373b 0d3f 228d a83f 62f4 3dbf bb25 eb3e
00000030: fab9 11bf 38fe 06bf dfa5 34bf 7625 2a3e
00000040: 8443 143f e13f efbe 9428 d23e e792 a33e
00000050: e990 f33e 228e b63e 5956 8cbe c87a 1abf
00000060: a287 02bf 5e5d 01bf 3f0d 213f 18c2 4abd
00000070: 2c8b 403f f3b3 383f 115c f73f f971 2bbf
00000080: fbd8 213f b88c 823d bba6 153f 71c0 bb3e
00000090: f694 013f 7c88 f03e 07b0 08bf 0c46 8cbe
000000a0: 4b7c 2dbe 84ab 81bf 15be 0b3f 21ac 093e
000000b0: 1945 bf3e 79d0 cd3e 5a51 ce3f 0046 0bbf
000000c0: 34be fc3d d69b be3d b86e ebbe ccdd 033e
000000d0: fd1c 00bf 2c99 a7be 0b67 1d3f b3ec b53d
000000e0: 8139 2c3f 5c43 873f b124 16bf e12b 873e
000000f0: 76d2 22bf f883 5dbf 0be4 1abf 6d88 ae3e
00000100: 96f9 813d 461b 4b3e 363f edbe 6124 993e
00000110: cfc1 74be 634e b0be de64 183f 5422 b53e
00000120: c82a cf3e 0e58 663f 41b5 0cbf 1c9e 493b
00000130: c9dd d7be 6f9a 2cbf e2d0 15bf 97e3 8f3e
00000140: cc2b b5bd 0478 653e de8f 05bf a2ee 6d3e
00000150: 7e56 3abf 198b 50be 430e 2d3f fd7e d93e
00000160: 43d1 023f dad9 853f 5d53 0bbf 2651 d23e
00000170: 8054 0fbf 0fa9 26bf 92b9 2cbf 203b e63e
00000180: 36d1 1c3d e8d3 ec3e 3a1e febe dc44 a23c
00000190: e2e6 28bf cf4c f4be c86d 1e3f cecd bd3e
000001a0: 5676 f93e abae 9e3f aa39 cbbe d1e6 cd3e
000001b0: 5f67 1abf 8088 35bf 2dfb 3bbf 4dfb d33e
000001c0: a44d 053d c3ed 71be 63cc 2abe 1eb8 d8ba
000001d0: 1981 96bd 893f 56bb 3c98 4abd bcbe c73d
000001e0: 1ea8 fc3d b252 5fbe 1624 e4bd b928 933c
000001f0: fa97 e1bc 5c0d 2bbe f105 8fbe f174 c1bd
-0.08367775 0.3232527 -0.25191 0.18880253 -0.7318354 -0.609931 0.7903579 0.08332338
0.5516848 1.316807 -0.74201024 0.45927224 -0.569244 -0.5273166 -0.705656 0.16615853
0.5791552 -0.46728423 0.41046584 0.31948015 0.47571495 0.35655314 -0.27409628 -0.603436
-0.5098821 -0.5053309 0.62910837 -0.04950151 0.7521236 0.7214958 1.9324971 -0.66970783
0.6322171 0.06374496 0.58457536 0.3667026 0.5061792 0.4697913 -0.53393596 -0.27397192
-0.16941945 -1.0130467 0.5458692 0.13444568 0.37357405 0.40198115 1.6118577 -0.54403687
0.12340966 0.09307067 -0.4598291 0.12877578 -0.5004423 -0.32734048 0.61485356 0.088830374
0.67275244 1.0567431 -0.58649737 0.26400664 -0.6360239 -0.86529493 -0.60504216 0.3408846
0.06346433 0.19834623 -0.4633729 0.29910567 -0.23902057 -0.34434804 0.5952891 0.35377753
0.40462327 0.8997811 -0.5496407 0.0030764407 -0.42161396 -0.67423147 -0.58521855 0.28103325
-0.08846244 0.22409064 -0.5217265 0.23235562 -0.72788227 -0.20365562 0.67599887 0.42479697
0.5110056 1.0457108 -0.5442408 0.41077536 -0.5598831 -0.6510171 -0.6747066 0.44966984
0.038285457 0.46255422 -0.49632436 0.019808225 -0.659773 -0.4771485 0.6188626 0.3707108
0.48723096 1.2397054 -0.39692432 0.4021516 -0.6031398 -0.7091141 -0.7343014 0.41402665
0.032544747 -0.23625855 -0.1667953 -0.0016534363 -0.07348842 -0.0032691678 -0.04946159 0.097531766
0.12336753 -0.2180889 -0.11139695 0.017963754 -0.027538288 -0.16704315 -0.2793422 -0.09446133

bias f4 [8]
00000000: 0b48 db3d 8a7c c33e 05a7 863e 225e 2bbd
00000010: 3e3f c1bd c42c b33d d327 523e df3f 63be
0.107071005 0.38180953 0.262993 -0.04183782 -0.094358906 0.08748773 0.20523004 -0.22192334

weight f4 [1, 8]
00000000: 5150 373f 759a 43bf ff00 57bf ad27 4b3f
00000010: 0f88 583f bb84 4b3f 74ea 113f be38 f5bd
0.7160693 -0.7640756 -0.83985895 0.79357415 0.8458261 0.79499406 0.5699837 -0.11973713
